node {
  name: "filenames"
  op: "Const"
  device: "/device:CPU:0"
  attr {
    key: "_output_shapes"
    value {
      list {
        shape {
          dim {
            size: 5
          }
        }
      }
    }
  }
  attr {
    key: "dtype"
    value {
      type: DT_STRING
    }
  }
  attr {
    key: "value"
    value {
      tensor {
        dtype: DT_STRING
        tensor_shape {
          dim {
            size: 5
          }
        }
        string_val: "/tmp/cifar10_data/cifar-10-batches-bin/data_batch_1.bin"
        string_val: "/tmp/cifar10_data/cifar-10-batches-bin/data_batch_2.bin"
        string_val: "/tmp/cifar10_data/cifar-10-batches-bin/data_batch_3.bin"
        string_val: "/tmp/cifar10_data/cifar-10-batches-bin/data_batch_4.bin"
        string_val: "/tmp/cifar10_data/cifar-10-batches-bin/data_batch_5.bin"
      }
    }
  }
}
node {
  name: "record_bytes"
  op: "Const"
  device: "/device:CPU:0"
  attr {
    key: "_output_shapes"
    value {
      list {
        shape {
        }
      }
    }
  }
  attr {
    key: "dtype"
    value {
      type: DT_INT64
    }
  }
  attr {
    key: "value"
    value {
      tensor {
        dtype: DT_INT64
        tensor_shape {
        }
        int64_val: 3073
      }
    }
  }
}
node {
  name: "header_bytes"
  op: "Const"
  device: "/device:CPU:0"
  attr {
    key: "_output_shapes"
    value {
      list {
        shape {
        }
      }
    }
  }
  attr {
    key: "dtype"
    value {
      type: DT_INT64
    }
  }
  attr {
    key: "value"
    value {
      tensor {
        dtype: DT_INT64
        tensor_shape {
        }
        int64_val: 0
      }
    }
  }
}
node {
  name: "footer_bytes"
  op: "Const"
  device: "/device:CPU:0"
  attr {
    key: "_output_shapes"
    value {
      list {
        shape {
        }
      }
    }
  }
  attr {
    key: "dtype"
    value {
      type: DT_INT64
    }
  }
  attr {
    key: "value"
    value {
      tensor {
        dtype: DT_INT64
        tensor_shape {
        }
        int64_val: 0
      }
    }
  }
}
node {
  name: "buffer_size"
  op: "Const"
  device: "/device:CPU:0"
  attr {
    key: "_output_shapes"
    value {
      list {
        shape {
        }
      }
    }
  }
  attr {
    key: "dtype"
    value {
      type: DT_INT64
    }
  }
  attr {
    key: "value"
    value {
      tensor {
        dtype: DT_INT64
        tensor_shape {
        }
        int64_val: 262144
      }
    }
  }
}
node {
  name: "buffer_size_1"
  op: "Const"
  device: "/device:CPU:0"
  attr {
    key: "_output_shapes"
    value {
      list {
        shape {
        }
      }
    }
  }
  attr {
    key: "dtype"
    value {
      type: DT_INT64
    }
  }
  attr {
    key: "value"
    value {
      tensor {
        dtype: DT_INT64
        tensor_shape {
        }
        int64_val: 128
      }
    }
  }
}
node {
  name: "buffer_size_2"
  op: "Const"
  device: "/device:CPU:0"
  attr {
    key: "_output_shapes"
    value {
      list {
        shape {
        }
      }
    }
  }
  attr {
    key: "dtype"
    value {
      type: DT_INT64
    }
  }
  attr {
    key: "value"
    value {
      tensor {
        dtype: DT_INT64
        tensor_shape {
        }
        int64_val: 50000
      }
    }
  }
}
node {
  name: "seed"
  op: "Const"
  device: "/device:CPU:0"
  attr {
    key: "_output_shapes"
    value {
      list {
        shape {
        }
      }
    }
  }
  attr {
    key: "dtype"
    value {
      type: DT_INT64
    }
  }
  attr {
    key: "value"
    value {
      tensor {
        dtype: DT_INT64
        tensor_shape {
        }
        int64_val: 0
      }
    }
  }
}
node {
  name: "seed2"
  op: "Const"
  device: "/device:CPU:0"
  attr {
    key: "_output_shapes"
    value {
      list {
        shape {
        }
      }
    }
  }
  attr {
    key: "dtype"
    value {
      type: DT_INT64
    }
  }
  attr {
    key: "value"
    value {
      tensor {
        dtype: DT_INT64
        tensor_shape {
        }
        int64_val: 0
      }
    }
  }
}
node {
  name: "count"
  op: "Const"
  device: "/device:CPU:0"
  attr {
    key: "_output_shapes"
    value {
      list {
        shape {
        }
      }
    }
  }
  attr {
    key: "dtype"
    value {
      type: DT_INT64
    }
  }
  attr {
    key: "value"
    value {
      tensor {
        dtype: DT_INT64
        tensor_shape {
        }
        int64_val: 5
      }
    }
  }
}
node {
  name: "batch_size"
  op: "Const"
  device: "/device:CPU:0"
  attr {
    key: "_output_shapes"
    value {
      list {
        shape {
        }
      }
    }
  }
  attr {
    key: "dtype"
    value {
      type: DT_INT64
    }
  }
  attr {
    key: "value"
    value {
      tensor {
        dtype: DT_INT64
        tensor_shape {
        }
        int64_val: 128
      }
    }
  }
}
node {
  name: "num_parallel_calls"
  op: "Const"
  device: "/device:CPU:0"
  attr {
    key: "_output_shapes"
    value {
      list {
        shape {
        }
      }
    }
  }
  attr {
    key: "dtype"
    value {
      type: DT_INT64
    }
  }
  attr {
    key: "value"
    value {
      tensor {
        dtype: DT_INT64
        tensor_shape {
        }
        int64_val: 128
      }
    }
  }
}
node {
  name: "drop_remainder"
  op: "Const"
  device: "/device:CPU:0"
  attr {
    key: "_output_shapes"
    value {
      list {
        shape {
        }
      }
    }
  }
  attr {
    key: "dtype"
    value {
      type: DT_BOOL
    }
  }
  attr {
    key: "value"
    value {
      tensor {
        dtype: DT_BOOL
        tensor_shape {
        }
        bool_val: false
      }
    }
  }
}
node {
  name: "buffer_size_3"
  op: "Const"
  device: "/device:CPU:0"
  attr {
    key: "_output_shapes"
    value {
      list {
        shape {
        }
      }
    }
  }
  attr {
    key: "dtype"
    value {
      type: DT_INT64
    }
  }
  attr {
    key: "value"
    value {
      tensor {
        dtype: DT_INT64
        tensor_shape {
        }
        int64_val: -1
      }
    }
  }
}
node {
  name: "IteratorV2"
  op: "IteratorV2"
  device: "/device:GPU:0"
  attr {
    key: "_output_shapes"
    value {
      list {
        shape {
        }
      }
    }
  }
  attr {
    key: "container"
    value {
      s: ""
    }
  }
  attr {
    key: "output_shapes"
    value {
      list {
        shape {
          dim {
            size: -1
          }
          dim {
            size: 32
          }
          dim {
            size: 32
          }
          dim {
            size: 3
          }
        }
        shape {
          dim {
            size: -1
          }
        }
      }
    }
  }
  attr {
    key: "output_types"
    value {
      list {
        type: DT_FLOAT
        type: DT_INT32
      }
    }
  }
  attr {
    key: "shared_name"
    value {
      s: ""
    }
  }
}
node {
  name: "IteratorToStringHandle"
  op: "IteratorToStringHandle"
  input: "IteratorV2"
  device: "/device:GPU:0"
  attr {
    key: "_output_shapes"
    value {
      list {
        shape {
        }
      }
    }
  }
}
node {
  name: "ExperimentalIteratorGetDevice"
  op: "ExperimentalIteratorGetDevice"
  input: "IteratorV2"
  device: "/device:GPU:0"
  attr {
    key: "_output_shapes"
    value {
      list {
        shape {
        }
      }
    }
  }
}
node {
  name: "ExperimentalFunctionBufferingResource"
  op: "ExperimentalFunctionBufferingResource"
  input: "IteratorToStringHandle"
  input: "ExperimentalIteratorGetDevice"
  device: "/device:GPU:0"
  attr {
    key: "_output_shapes"
    value {
      list {
        shape {
          unknown_rank: true
        }
      }
    }
  }
  attr {
    key: "buffer_size"
    value {
      i: 1
    }
  }
  attr {
    key: "container"
    value {
      s: ""
    }
  }
  attr {
    key: "f"
    value {
      func {
        name: "_prefetch_fn_x2LuWNabKbc"
      }
    }
  }
  attr {
    key: "output_types"
    value {
      list {
        type: DT_FLOAT
        type: DT_INT32
      }
    }
  }
  attr {
    key: "shared_name"
    value {
      s: ""
    }
  }
}
node {
  name: "ExperimentalFunctionBufferingResourceReset"
  op: "ExperimentalFunctionBufferingResourceReset"
  input: "ExperimentalFunctionBufferingResource"
  device: "/device:GPU:0"
}
node {
  name: "FixedLengthRecordDataset"
  op: "FixedLengthRecordDataset"
  input: "filenames"
  input: "header_bytes"
  input: "record_bytes"
  input: "footer_bytes"
  input: "buffer_size"
  input: "^ExperimentalFunctionBufferingResourceReset"
  device: "/device:GPU:0"
  attr {
    key: "_class"
    value {
      list {
        s: "loc:@IteratorV2"
      }
    }
  }
  attr {
    key: "_output_shapes"
    value {
      list {
        shape {
        }
      }
    }
  }
}
node {
  name: "PrefetchDataset"
  op: "PrefetchDataset"
  input: "FixedLengthRecordDataset"
  input: "buffer_size_1"
  device: "/device:GPU:0"
  attr {
    key: "_class"
    value {
      list {
        s: "loc:@IteratorV2"
      }
    }
  }
  attr {
    key: "_output_shapes"
    value {
      list {
        shape {
        }
      }
    }
  }
  attr {
    key: "output_shapes"
    value {
      list {
        shape {
        }
      }
    }
  }
  attr {
    key: "output_types"
    value {
      list {
        type: DT_STRING
      }
    }
  }
}
node {
  name: "ShuffleDataset"
  op: "ShuffleDataset"
  input: "PrefetchDataset"
  input: "buffer_size_2"
  input: "seed"
  input: "seed2"
  device: "/device:GPU:0"
  attr {
    key: "_class"
    value {
      list {
        s: "loc:@IteratorV2"
      }
    }
  }
  attr {
    key: "_output_shapes"
    value {
      list {
        shape {
        }
      }
    }
  }
  attr {
    key: "output_shapes"
    value {
      list {
        shape {
        }
      }
    }
  }
  attr {
    key: "output_types"
    value {
      list {
        type: DT_STRING
      }
    }
  }
  attr {
    key: "reshuffle_each_iteration"
    value {
      b: true
    }
  }
}
node {
  name: "RepeatDataset"
  op: "RepeatDataset"
  input: "ShuffleDataset"
  input: "count"
  device: "/device:GPU:0"
  attr {
    key: "_class"
    value {
      list {
        s: "loc:@IteratorV2"
      }
    }
  }
  attr {
    key: "_output_shapes"
    value {
      list {
        shape {
        }
      }
    }
  }
  attr {
    key: "output_shapes"
    value {
      list {
        shape {
        }
      }
    }
  }
  attr {
    key: "output_types"
    value {
      list {
        type: DT_STRING
      }
    }
  }
}
node {
  name: "MapAndBatchDatasetV2"
  op: "MapAndBatchDatasetV2"
  input: "RepeatDataset"
  input: "batch_size"
  input: "num_parallel_calls"
  input: "drop_remainder"
  device: "/device:GPU:0"
  attr {
    key: "Targuments"
    value {
      list {
      }
    }
  }
  attr {
    key: "_class"
    value {
      list {
        s: "loc:@IteratorV2"
      }
    }
  }
  attr {
    key: "_output_shapes"
    value {
      list {
        shape {
        }
      }
    }
  }
  attr {
    key: "f"
    value {
      func {
        name: "tf_data_structured_function_wrapper_1laPmU40Yks"
      }
    }
  }
  attr {
    key: "output_shapes"
    value {
      list {
        shape {
          dim {
            size: -1
          }
          dim {
            size: 32
          }
          dim {
            size: 32
          }
          dim {
            size: 3
          }
        }
        shape {
          dim {
            size: -1
          }
        }
      }
    }
  }
  attr {
    key: "output_types"
    value {
      list {
        type: DT_FLOAT
        type: DT_INT32
      }
    }
  }
}
node {
  name: "PrefetchDataset_1"
  op: "PrefetchDataset"
  input: "MapAndBatchDatasetV2"
  input: "buffer_size_3"
  device: "/device:GPU:0"
  attr {
    key: "_class"
    value {
      list {
        s: "loc:@IteratorV2"
      }
    }
  }
  attr {
    key: "_output_shapes"
    value {
      list {
        shape {
        }
      }
    }
  }
  attr {
    key: "output_shapes"
    value {
      list {
        shape {
          dim {
            size: -1
          }
          dim {
            size: 32
          }
          dim {
            size: 32
          }
          dim {
            size: 3
          }
        }
        shape {
          dim {
            size: -1
          }
        }
      }
    }
  }
  attr {
    key: "output_types"
    value {
      list {
        type: DT_FLOAT
        type: DT_INT32
      }
    }
  }
}
node {
  name: "make_initializer"
  op: "MakeIterator"
  input: "PrefetchDataset_1"
  input: "IteratorV2"
  device: "/device:GPU:0"
  attr {
    key: "_class"
    value {
      list {
        s: "loc:@IteratorV2"
      }
    }
  }
}
node {
  name: "global_step/Initializer/zeros"
  op: "Const"
  attr {
    key: "_class"
    value {
      list {
        s: "loc:@global_step"
      }
    }
  }
  attr {
    key: "_output_shapes"
    value {
      list {
        shape {
        }
      }
    }
  }
  attr {
    key: "dtype"
    value {
      type: DT_INT64
    }
  }
  attr {
    key: "value"
    value {
      tensor {
        dtype: DT_INT64
        tensor_shape {
        }
        int64_val: 0
      }
    }
  }
}
node {
  name: "global_step"
  op: "VarHandleOp"
  device: "/device:GPU:0"
  attr {
    key: "_class"
    value {
      list {
        s: "loc:@global_step"
      }
    }
  }
  attr {
    key: "_output_shapes"
    value {
      list {
        shape {
        }
      }
    }
  }
  attr {
    key: "container"
    value {
      s: ""
    }
  }
  attr {
    key: "dtype"
    value {
      type: DT_INT64
    }
  }
  attr {
    key: "shape"
    value {
      shape {
      }
    }
  }
  attr {
    key: "shared_name"
    value {
      s: "global_step"
    }
  }
}
node {
  name: "global_step/IsInitialized/VarIsInitializedOp"
  op: "VarIsInitializedOp"
  input: "global_step"
  device: "/device:GPU:0"
  attr {
    key: "_output_shapes"
    value {
      list {
        shape {
        }
      }
    }
  }
}
node {
  name: "global_step/Assign"
  op: "AssignVariableOp"
  input: "global_step"
  input: "global_step/Initializer/zeros"
  device: "/device:GPU:0"
  attr {
    key: "_class"
    value {
      list {
        s: "loc:@global_step"
      }
    }
  }
  attr {
    key: "dtype"
    value {
      type: DT_INT64
    }
  }
}
node {
  name: "global_step/Read/ReadVariableOp"
  op: "ReadVariableOp"
  input: "global_step"
  device: "/device:GPU:0"
  attr {
    key: "_class"
    value {
      list {
        s: "loc:@global_step"
      }
    }
  }
  attr {
    key: "_output_shapes"
    value {
      list {
        shape {
        }
      }
    }
  }
  attr {
    key: "dtype"
    value {
      type: DT_INT64
    }
  }
}
node {
  name: "Identity/ReadVariableOp"
  op: "ReadVariableOp"
  input: "global_step"
  device: "/device:GPU:0"
  attr {
    key: "_output_shapes"
    value {
      list {
        shape {
        }
      }
    }
  }
  attr {
    key: "dtype"
    value {
      type: DT_INT64
    }
  }
}
node {
  name: "Identity"
  op: "Identity"
  input: "Identity/ReadVariableOp"
  device: "/device:GPU:0"
  attr {
    key: "T"
    value {
      type: DT_INT64
    }
  }
  attr {
    key: "_output_shapes"
    value {
      list {
        shape {
        }
      }
    }
  }
}
node {
  name: "ExperimentalFunctionBufferingResourceGetNext"
  op: "ExperimentalFunctionBufferingResourceGetNext"
  input: "ExperimentalFunctionBufferingResource"
  device: "/device:GPU:0"
  attr {
    key: "_output_shapes"
    value {
      list {
        shape {
          dim {
            size: -1
          }
          dim {
            size: 32
          }
          dim {
            size: 32
          }
          dim {
            size: 3
          }
        }
        shape {
          dim {
            size: -1
          }
        }
      }
    }
  }
  attr {
    key: "output_types"
    value {
      list {
        type: DT_FLOAT
        type: DT_INT32
      }
    }
  }
}
node {
  name: "Reshape/shape"
  op: "Const"
  device: "/device:GPU:0"
  attr {
    key: "_output_shapes"
    value {
      list {
        shape {
          dim {
            size: 4
          }
        }
      }
    }
  }
  attr {
    key: "dtype"
    value {
      type: DT_INT32
    }
  }
  attr {
    key: "value"
    value {
      tensor {
        dtype: DT_INT32
        tensor_shape {
          dim {
            size: 4
          }
        }
        tensor_content: "\377\377\377\377 \000\000\000 \000\000\000\003\000\000\000"
      }
    }
  }
}
node {
  name: "Reshape"
  op: "Reshape"
  input: "ExperimentalFunctionBufferingResourceGetNext"
  input: "Reshape/shape"
  device: "/device:GPU:0"
  attr {
    key: "T"
    value {
      type: DT_FLOAT
    }
  }
  attr {
    key: "Tshape"
    value {
      type: DT_INT32
    }
  }
  attr {
    key: "_output_shapes"
    value {
      list {
        shape {
          dim {
            size: -1
          }
          dim {
            size: 32
          }
          dim {
            size: 32
          }
          dim {
            size: 3
          }
        }
      }
    }
  }
}
node {
  name: "images/tag"
  op: "Const"
  device: "/device:GPU:0"
  attr {
    key: "_output_shapes"
    value {
      list {
        shape {
        }
      }
    }
  }
  attr {
    key: "dtype"
    value {
      type: DT_STRING
    }
  }
  attr {
    key: "value"
    value {
      tensor {
        dtype: DT_STRING
        tensor_shape {
        }
        string_val: "images"
      }
    }
  }
}
node {
  name: "images"
  op: "ImageSummary"
  input: "images/tag"
  input: "Reshape"
  device: "/device:GPU:0"
  attr {
    key: "T"
    value {
      type: DT_FLOAT
    }
  }
  attr {
    key: "_output_shapes"
    value {
      list {
        shape {
        }
      }
    }
  }
  attr {
    key: "bad_color"
    value {
      tensor {
        dtype: DT_UINT8
        tensor_shape {
          dim {
            size: 4
          }
        }
        int_val: 255
        int_val: 0
        int_val: 0
        int_val: 255
      }
    }
  }
  attr {
    key: "max_images"
    value {
      i: 6
    }
  }
}
node {
  name: "resnet_model/conv2d/kernel/Initializer/truncated_normal/shape"
  op: "Const"
  attr {
    key: "_class"
    value {
      list {
        s: "loc:@resnet_model/conv2d/kernel"
      }
    }
  }
  attr {
    key: "_output_shapes"
    value {
      list {
        shape {
          dim {
            size: 4
          }
        }
      }
    }
  }
  attr {
    key: "dtype"
    value {
      type: DT_INT32
    }
  }
  attr {
    key: "value"
    value {
      tensor {
        dtype: DT_INT32
        tensor_shape {
          dim {
            size: 4
          }
        }
        tensor_content: "\003\000\000\000\003\000\000\000\003\000\000\000\020\000\000\000"
      }
    }
  }
}
node {
  name: "resnet_model/conv2d/kernel/Initializer/truncated_normal/mean"
  op: "Const"
  attr {
    key: "_class"
    value {
      list {
        s: "loc:@resnet_model/conv2d/kernel"
      }
    }
  }
  attr {
    key: "_output_shapes"
    value {
      list {
        shape {
        }
      }
    }
  }
  attr {
    key: "dtype"
    value {
      type: DT_FLOAT
    }
  }
  attr {
    key: "value"
    value {
      tensor {
        dtype: DT_FLOAT
        tensor_shape {
        }
        float_val: 0.0
      }
    }
  }
}
node {
  name: "resnet_model/conv2d/kernel/Initializer/truncated_normal/stddev"
  op: "Const"
  attr {
    key: "_class"
    value {
      list {
        s: "loc:@resnet_model/conv2d/kernel"
      }
    }
  }
  attr {
    key: "_output_shapes"
    value {
      list {
        shape {
        }
      }
    }
  }
  attr {
    key: "dtype"
    value {
      type: DT_FLOAT
    }
  }
  attr {
    key: "value"
    value {
      tensor {
        dtype: DT_FLOAT
        tensor_shape {
        }
        float_val: 0.218786358833
      }
    }
  }
}
node {
  name: "resnet_model/conv2d/kernel/Initializer/truncated_normal/TruncatedNormal"
  op: "TruncatedNormal"
  input: "resnet_model/conv2d/kernel/Initializer/truncated_normal/shape"
  attr {
    key: "T"
    value {
      type: DT_INT32
    }
  }
  attr {
    key: "_class"
    value {
      list {
        s: "loc:@resnet_model/conv2d/kernel"
      }
    }
  }
  attr {
    key: "_output_shapes"
    value {
      list {
        shape {
          dim {
            size: 3
          }
          dim {
            size: 3
          }
          dim {
            size: 3
          }
          dim {
            size: 16
          }
        }
      }
    }
  }
  attr {
    key: "dtype"
    value {
      type: DT_FLOAT
    }
  }
  attr {
    key: "seed"
    value {
      i: 0
    }
  }
  attr {
    key: "seed2"
    value {
      i: 0
    }
  }
}
node {
  name: "resnet_model/conv2d/kernel/Initializer/truncated_normal/mul"
  op: "Mul"
  input: "resnet_model/conv2d/kernel/Initializer/truncated_normal/TruncatedNormal"
  input: "resnet_model/conv2d/kernel/Initializer/truncated_normal/stddev"
  attr {
    key: "T"
    value {
      type: DT_FLOAT
    }
  }
  attr {
    key: "_class"
    value {
      list {
        s: "loc:@resnet_model/conv2d/kernel"
      }
    }
  }
  attr {
    key: "_output_shapes"
    value {
      list {
        shape {
          dim {
            size: 3
          }
          dim {
            size: 3
          }
          dim {
            size: 3
          }
          dim {
            size: 16
          }
        }
      }
    }
  }
}
node {
  name: "resnet_model/conv2d/kernel/Initializer/truncated_normal"
  op: "Add"
  input: "resnet_model/conv2d/kernel/Initializer/truncated_normal/mul"
  input: "resnet_model/conv2d/kernel/Initializer/truncated_normal/mean"
  attr {
    key: "T"
    value {
      type: DT_FLOAT
    }
  }
  attr {
    key: "_class"
    value {
      list {
        s: "loc:@resnet_model/conv2d/kernel"
      }
    }
  }
  attr {
    key: "_output_shapes"
    value {
      list {
        shape {
          dim {
            size: 3
          }
          dim {
            size: 3
          }
          dim {
            size: 3
          }
          dim {
            size: 16
          }
        }
      }
    }
  }
}
node {
  name: "resnet_model/conv2d/kernel"
  op: "VarHandleOp"
  device: "/device:GPU:0"
  attr {
    key: "_class"
    value {
      list {
        s: "loc:@resnet_model/conv2d/kernel"
      }
    }
  }
  attr {
    key: "_output_shapes"
    value {
      list {
        shape {
        }
      }
    }
  }
  attr {
    key: "container"
    value {
      s: ""
    }
  }
  attr {
    key: "dtype"
    value {
      type: DT_FLOAT
    }
  }
  attr {
    key: "shape"
    value {
      shape {
        dim {
          size: 3
        }
        dim {
          size: 3
        }
        dim {
          size: 3
        }
        dim {
          size: 16
        }
      }
    }
  }
  attr {
    key: "shared_name"
    value {
      s: "resnet_model/conv2d/kernel"
    }
  }
}
node {
  name: "resnet_model/conv2d/kernel/IsInitialized/VarIsInitializedOp"
  op: "VarIsInitializedOp"
  input: "resnet_model/conv2d/kernel"
  device: "/device:GPU:0"
  attr {
    key: "_output_shapes"
    value {
      list {
        shape {
        }
      }
    }
  }
}
node {
  name: "resnet_model/conv2d/kernel/Assign"
  op: "AssignVariableOp"
  input: "resnet_model/conv2d/kernel"
  input: "resnet_model/conv2d/kernel/Initializer/truncated_normal"
  device: "/device:GPU:0"
  attr {
    key: "_class"
    value {
      list {
        s: "loc:@resnet_model/conv2d/kernel"
      }
    }
  }
  attr {
    key: "dtype"
    value {
      type: DT_FLOAT
    }
  }
}
node {
  name: "resnet_model/conv2d/kernel/Read/ReadVariableOp"
  op: "ReadVariableOp"
  input: "resnet_model/conv2d/kernel"
  device: "/device:GPU:0"
  attr {
    key: "_class"
    value {
      list {
        s: "loc:@resnet_model/conv2d/kernel"
      }
    }
  }
  attr {
    key: "_output_shapes"
    value {
      list {
        shape {
          dim {
            size: 3
          }
          dim {
            size: 3
          }
          dim {
            size: 3
          }
          dim {
            size: 16
          }
        }
      }
    }
  }
  attr {
    key: "dtype"
    value {
      type: DT_FLOAT
    }
  }
}
node {
  name: "resnet_model/conv2d/dilation_rate"
  op: "Const"
  device: "/device:GPU:0"
  attr {
    key: "_output_shapes"
    value {
      list {
        shape {
          dim {
            size: 2
          }
        }
      }
    }
  }
  attr {
    key: "dtype"
    value {
      type: DT_INT32
    }
  }
  attr {
    key: "value"
    value {
      tensor {
        dtype: DT_INT32
        tensor_shape {
          dim {
            size: 2
          }
        }
        tensor_content: "\001\000\000\000\001\000\000\000"
      }
    }
  }
}
node {
  name: "resnet_model/conv2d/Conv2D/ReadVariableOp"
  op: "ReadVariableOp"
  input: "resnet_model/conv2d/kernel"
  device: "/device:GPU:0"
  attr {
    key: "_output_shapes"
    value {
      list {
        shape {
          dim {
            size: 3
          }
          dim {
            size: 3
          }
          dim {
            size: 3
          }
          dim {
            size: 16
          }
        }
      }
    }
  }
  attr {
    key: "dtype"
    value {
      type: DT_FLOAT
    }
  }
}
node {
  name: "resnet_model/conv2d/Conv2D"
  op: "Conv2D"
  input: "Reshape"
  input: "resnet_model/conv2d/Conv2D/ReadVariableOp"
  device: "/device:GPU:0"
  attr {
    key: "T"
    value {
      type: DT_FLOAT
    }
  }
  attr {
    key: "_output_shapes"
    value {
      list {
        shape {
          dim {
            size: -1
          }
          dim {
            size: 32
          }
          dim {
            size: 32
          }
          dim {
            size: 16
          }
        }
      }
    }
  }
  attr {
    key: "data_format"
    value {
      s: "NHWC"
    }
  }
  attr {
    key: "dilations"
    value {
      list {
        i: 1
        i: 1
        i: 1
        i: 1
      }
    }
  }
  attr {
    key: "padding"
    value {
      s: "SAME"
    }
  }
  attr {
    key: "strides"
    value {
      list {
        i: 1
        i: 1
        i: 1
        i: 1
      }
    }
  }
  attr {
    key: "use_cudnn_on_gpu"
    value {
      b: true
    }
  }
}
node {
  name: "resnet_model/initial_conv"
  op: "Identity"
  input: "resnet_model/conv2d/Conv2D"
  device: "/device:GPU:0"
  attr {
    key: "T"
    value {
      type: DT_FLOAT
    }
  }
  attr {
    key: "_output_shapes"
    value {
      list {
        shape {
          dim {
            size: -1
          }
          dim {
            size: 32
          }
          dim {
            size: 32
          }
          dim {
            size: 16
          }
        }
      }
    }
  }
}
node {
  name: "resnet_model/batch_normalization/gamma/Initializer/ones"
  op: "Const"
  attr {
    key: "_class"
    value {
      list {
        s: "loc:@resnet_model/batch_normalization/gamma"
      }
    }
  }
  attr {
    key: "_output_shapes"
    value {
      list {
        shape {
          dim {
            size: 16
          }
        }
      }
    }
  }
  attr {
    key: "dtype"
    value {
      type: DT_FLOAT
    }
  }
  attr {
    key: "value"
    value {
      tensor {
        dtype: DT_FLOAT
        tensor_shape {
          dim {
            size: 16
          }
        }
        float_val: 1.0
      }
    }
  }
}
node {
  name: "resnet_model/batch_normalization/gamma"
  op: "VarHandleOp"
  device: "/device:GPU:0"
  attr {
    key: "_class"
    value {
      list {
        s: "loc:@resnet_model/batch_normalization/gamma"
      }
    }
  }
  attr {
    key: "_output_shapes"
    value {
      list {
        shape {
        }
      }
    }
  }
  attr {
    key: "container"
    value {
      s: ""
    }
  }
  attr {
    key: "dtype"
    value {
      type: DT_FLOAT
    }
  }
  attr {
    key: "shape"
    value {
      shape {
        dim {
          size: 16
        }
      }
    }
  }
  attr {
    key: "shared_name"
    value {
      s: "resnet_model/batch_normalization/gamma"
    }
  }
}
node {
  name: "resnet_model/batch_normalization/gamma/IsInitialized/VarIsInitializedOp"
  op: "VarIsInitializedOp"
  input: "resnet_model/batch_normalization/gamma"
  device: "/device:GPU:0"
  attr {
    key: "_output_shapes"
    value {
      list {
        shape {
        }
      }
    }
  }
}
node {
  name: "resnet_model/batch_normalization/gamma/Assign"
  op: "AssignVariableOp"
  input: "resnet_model/batch_normalization/gamma"
  input: "resnet_model/batch_normalization/gamma/Initializer/ones"
  device: "/device:GPU:0"
  attr {
    key: "_class"
    value {
      list {
        s: "loc:@resnet_model/batch_normalization/gamma"
      }
    }
  }
  attr {
    key: "dtype"
    value {
      type: DT_FLOAT
    }
  }
}
node {
  name: "resnet_model/batch_normalization/gamma/Read/ReadVariableOp"
  op: "ReadVariableOp"
  input: "resnet_model/batch_normalization/gamma"
  device: "/device:GPU:0"
  attr {
    key: "_class"
    value {
      list {
        s: "loc:@resnet_model/batch_normalization/gamma"
      }
    }
  }
  attr {
    key: "_output_shapes"
    value {
      list {
        shape {
          dim {
            size: 16
          }
        }
      }
    }
  }
  attr {
    key: "dtype"
    value {
      type: DT_FLOAT
    }
  }
}
node {
  name: "resnet_model/batch_normalization/beta/Initializer/zeros"
  op: "Const"
  attr {
    key: "_class"
    value {
      list {
        s: "loc:@resnet_model/batch_normalization/beta"
      }
    }
  }
  attr {
    key: "_output_shapes"
    value {
      list {
        shape {
          dim {
            size: 16
          }
        }
      }
    }
  }
  attr {
    key: "dtype"
    value {
      type: DT_FLOAT
    }
  }
  attr {
    key: "value"
    value {
      tensor {
        dtype: DT_FLOAT
        tensor_shape {
          dim {
            size: 16
          }
        }
        float_val: 0.0
      }
    }
  }
}
node {
  name: "resnet_model/batch_normalization/beta"
  op: "VarHandleOp"
  device: "/device:GPU:0"
  attr {
    key: "_class"
    value {
      list {
        s: "loc:@resnet_model/batch_normalization/beta"
      }
    }
  }
  attr {
    key: "_output_shapes"
    value {
      list {
        shape {
        }
      }
    }
  }
  attr {
    key: "container"
    value {
      s: ""
    }
  }
  attr {
    key: "dtype"
    value {
      type: DT_FLOAT
    }
  }
  attr {
    key: "shape"
    value {
      shape {
        dim {
          size: 16
        }
      }
    }
  }
  attr {
    key: "shared_name"
    value {
      s: "resnet_model/batch_normalization/beta"
    }
  }
}
node {
  name: "resnet_model/batch_normalization/beta/IsInitialized/VarIsInitializedOp"
  op: "VarIsInitializedOp"
  input: "resnet_model/batch_normalization/beta"
  device: "/device:GPU:0"
  attr {
    key: "_output_shapes"
    value {
      list {
        shape {
        }
      }
    }
  }
}
node {
  name: "resnet_model/batch_normalization/beta/Assign"
  op: "AssignVariableOp"
  input: "resnet_model/batch_normalization/beta"
  input: "resnet_model/batch_normalization/beta/Initializer/zeros"
  device: "/device:GPU:0"
  attr {
    key: "_class"
    value {
      list {
        s: "loc:@resnet_model/batch_normalization/beta"
      }
    }
  }
  attr {
    key: "dtype"
    value {
      type: DT_FLOAT
    }
  }
}
node {
  name: "resnet_model/batch_normalization/beta/Read/ReadVariableOp"
  op: "ReadVariableOp"
  input: "resnet_model/batch_normalization/beta"
  device: "/device:GPU:0"
  attr {
    key: "_class"
    value {
      list {
        s: "loc:@resnet_model/batch_normalization/beta"
      }
    }
  }
  attr {
    key: "_output_shapes"
    value {
      list {
        shape {
          dim {
            size: 16
          }
        }
      }
    }
  }
  attr {
    key: "dtype"
    value {
      type: DT_FLOAT
    }
  }
}
node {
  name: "resnet_model/batch_normalization/moving_mean/Initializer/zeros"
  op: "Const"
  attr {
    key: "_class"
    value {
      list {
        s: "loc:@resnet_model/batch_normalization/moving_mean"
      }
    }
  }
  attr {
    key: "_output_shapes"
    value {
      list {
        shape {
          dim {
            size: 16
          }
        }
      }
    }
  }
  attr {
    key: "dtype"
    value {
      type: DT_FLOAT
    }
  }
  attr {
    key: "value"
    value {
      tensor {
        dtype: DT_FLOAT
        tensor_shape {
          dim {
            size: 16
          }
        }
        float_val: 0.0
      }
    }
  }
}
node {
  name: "resnet_model/batch_normalization/moving_mean"
  op: "VarHandleOp"
  device: "/device:GPU:0"
  attr {
    key: "_class"
    value {
      list {
        s: "loc:@resnet_model/batch_normalization/moving_mean"
      }
    }
  }
  attr {
    key: "_output_shapes"
    value {
      list {
        shape {
        }
      }
    }
  }
  attr {
    key: "container"
    value {
      s: ""
    }
  }
  attr {
    key: "dtype"
    value {
      type: DT_FLOAT
    }
  }
  attr {
    key: "shape"
    value {
      shape {
        dim {
          size: 16
        }
      }
    }
  }
  attr {
    key: "shared_name"
    value {
      s: "resnet_model/batch_normalization/moving_mean"
    }
  }
}
node {
  name: "resnet_model/batch_normalization/moving_mean/IsInitialized/VarIsInitializedOp"
  op: "VarIsInitializedOp"
  input: "resnet_model/batch_normalization/moving_mean"
  device: "/device:GPU:0"
  attr {
    key: "_output_shapes"
    value {
      list {
        shape {
        }
      }
    }
  }
}
node {
  name: "resnet_model/batch_normalization/moving_mean/Assign"
  op: "AssignVariableOp"
  input: "resnet_model/batch_normalization/moving_mean"
  input: "resnet_model/batch_normalization/moving_mean/Initializer/zeros"
  device: "/device:GPU:0"
  attr {
    key: "_class"
    value {
      list {
        s: "loc:@resnet_model/batch_normalization/moving_mean"
      }
    }
  }
  attr {
    key: "dtype"
    value {
      type: DT_FLOAT
    }
  }
}
node {
  name: "resnet_model/batch_normalization/moving_mean/Read/ReadVariableOp"
  op: "ReadVariableOp"
  input: "resnet_model/batch_normalization/moving_mean"
  device: "/device:GPU:0"
  attr {
    key: "_class"
    value {
      list {
        s: "loc:@resnet_model/batch_normalization/moving_mean"
      }
    }
  }
  attr {
    key: "_output_shapes"
    value {
      list {
        shape {
          dim {
            size: 16
          }
        }
      }
    }
  }
  attr {
    key: "dtype"
    value {
      type: DT_FLOAT
    }
  }
}
node {
  name: "resnet_model/batch_normalization/moving_variance/Initializer/ones"
  op: "Const"
  attr {
    key: "_class"
    value {
      list {
        s: "loc:@resnet_model/batch_normalization/moving_variance"
      }
    }
  }
  attr {
    key: "_output_shapes"
    value {
      list {
        shape {
          dim {
            size: 16
          }
        }
      }
    }
  }
  attr {
    key: "dtype"
    value {
      type: DT_FLOAT
    }
  }
  attr {
    key: "value"
    value {
      tensor {
        dtype: DT_FLOAT
        tensor_shape {
          dim {
            size: 16
          }
        }
        float_val: 1.0
      }
    }
  }
}
node {
  name: "resnet_model/batch_normalization/moving_variance"
  op: "VarHandleOp"
  device: "/device:GPU:0"
  attr {
    key: "_class"
    value {
      list {
        s: "loc:@resnet_model/batch_normalization/moving_variance"
      }
    }
  }
  attr {
    key: "_output_shapes"
    value {
      list {
        shape {
        }
      }
    }
  }
  attr {
    key: "container"
    value {
      s: ""
    }
  }
  attr {
    key: "dtype"
    value {
      type: DT_FLOAT
    }
  }
  attr {
    key: "shape"
    value {
      shape {
        dim {
          size: 16
        }
      }
    }
  }
  attr {
    key: "shared_name"
    value {
      s: "resnet_model/batch_normalization/moving_variance"
    }
  }
}
node {
  name: "resnet_model/batch_normalization/moving_variance/IsInitialized/VarIsInitializedOp"
  op: "VarIsInitializedOp"
  input: "resnet_model/batch_normalization/moving_variance"
  device: "/device:GPU:0"
  attr {
    key: "_output_shapes"
    value {
      list {
        shape {
        }
      }
    }
  }
}
node {
  name: "resnet_model/batch_normalization/moving_variance/Assign"
  op: "AssignVariableOp"
  input: "resnet_model/batch_normalization/moving_variance"
  input: "resnet_model/batch_normalization/moving_variance/Initializer/ones"
  device: "/device:GPU:0"
  attr {
    key: "_class"
    value {
      list {
        s: "loc:@resnet_model/batch_normalization/moving_variance"
      }
    }
  }
  attr {
    key: "dtype"
    value {
      type: DT_FLOAT
    }
  }
}
node {
  name: "resnet_model/batch_normalization/moving_variance/Read/ReadVariableOp"
  op: "ReadVariableOp"
  input: "resnet_model/batch_normalization/moving_variance"
  device: "/device:GPU:0"
  attr {
    key: "_class"
    value {
      list {
        s: "loc:@resnet_model/batch_normalization/moving_variance"
      }
    }
  }
  attr {
    key: "_output_shapes"
    value {
      list {
        shape {
          dim {
            size: 16
          }
        }
      }
    }
  }
  attr {
    key: "dtype"
    value {
      type: DT_FLOAT
    }
  }
}
node {
  name: "resnet_model/batch_normalization/ReadVariableOp"
  op: "ReadVariableOp"
  input: "resnet_model/batch_normalization/gamma"
  device: "/device:GPU:0"
  attr {
    key: "_output_shapes"
    value {
      list {
        shape {
          dim {
            size: 16
          }
        }
      }
    }
  }
  attr {
    key: "dtype"
    value {
      type: DT_FLOAT
    }
  }
}
node {
  name: "resnet_model/batch_normalization/ReadVariableOp_1"
  op: "ReadVariableOp"
  input: "resnet_model/batch_normalization/beta"
  device: "/device:GPU:0"
  attr {
    key: "_output_shapes"
    value {
      list {
        shape {
          dim {
            size: 16
          }
        }
      }
    }
  }
  attr {
    key: "dtype"
    value {
      type: DT_FLOAT
    }
  }
}
node {
  name: "resnet_model/batch_normalization/Const"
  op: "Const"
  device: "/device:GPU:0"
  attr {
    key: "_output_shapes"
    value {
      list {
        shape {
          dim {
          }
        }
      }
    }
  }
  attr {
    key: "dtype"
    value {
      type: DT_FLOAT
    }
  }
  attr {
    key: "value"
    value {
      tensor {
        dtype: DT_FLOAT
        tensor_shape {
          dim {
          }
        }
      }
    }
  }
}
node {
  name: "resnet_model/batch_normalization/Const_1"
  op: "Const"
  device: "/device:GPU:0"
  attr {
    key: "_output_shapes"
    value {
      list {
        shape {
          dim {
          }
        }
      }
    }
  }
  attr {
    key: "dtype"
    value {
      type: DT_FLOAT
    }
  }
  attr {
    key: "value"
    value {
      tensor {
        dtype: DT_FLOAT
        tensor_shape {
          dim {
          }
        }
      }
    }
  }
}
node {
  name: "resnet_model/batch_normalization/FusedBatchNorm"
  op: "FusedBatchNorm"
  input: "resnet_model/initial_conv"
  input: "resnet_model/batch_normalization/ReadVariableOp"
  input: "resnet_model/batch_normalization/ReadVariableOp_1"
  input: "resnet_model/batch_normalization/Const"
  input: "resnet_model/batch_normalization/Const_1"
  device: "/device:GPU:0"
  attr {
    key: "T"
    value {
      type: DT_FLOAT
    }
  }
  attr {
    key: "_output_shapes"
    value {
      list {
        shape {
          dim {
            size: -1
          }
          dim {
            size: 32
          }
          dim {
            size: 32
          }
          dim {
            size: 16
          }
        }
        shape {
          dim {
            size: 16
          }
        }
        shape {
          dim {
            size: 16
          }
        }
        shape {
          dim {
            size: 16
          }
        }
        shape {
          dim {
            size: 16
          }
        }
      }
    }
  }
  attr {
    key: "data_format"
    value {
      s: "NHWC"
    }
  }
  attr {
    key: "epsilon"
    value {
      f: 1.00099996416e-05
    }
  }
  attr {
    key: "is_training"
    value {
      b: true
    }
  }
}
node {
  name: "resnet_model/batch_normalization/Const_2"
  op: "Const"
  device: "/device:GPU:0"
  attr {
    key: "_output_shapes"
    value {
      list {
        shape {
        }
      }
    }
  }
  attr {
    key: "dtype"
    value {
      type: DT_FLOAT
    }
  }
  attr {
    key: "value"
    value {
      tensor {
        dtype: DT_FLOAT
        tensor_shape {
        }
        float_val: 0.996999979019
      }
    }
  }
}
node {
  name: "resnet_model/batch_normalization/AssignMovingAvg/Read/ReadVariableOp"
  op: "ReadVariableOp"
  input: "resnet_model/batch_normalization/moving_mean"
  device: "/device:GPU:0"
  attr {
    key: "_output_shapes"
    value {
      list {
        shape {
          dim {
            size: 16
          }
        }
      }
    }
  }
  attr {
    key: "dtype"
    value {
      type: DT_FLOAT
    }
  }
}
node {
  name: "resnet_model/batch_normalization/AssignMovingAvg/Identity"
  op: "Identity"
  input: "resnet_model/batch_normalization/AssignMovingAvg/Read/ReadVariableOp"
  device: "/device:GPU:0"
  attr {
    key: "T"
    value {
      type: DT_FLOAT
    }
  }
  attr {
    key: "_output_shapes"
    value {
      list {
        shape {
          dim {
            size: 16
          }
        }
      }
    }
  }
}
node {
  name: "resnet_model/batch_normalization/AssignMovingAvg/sub/x"
  op: "Const"
  device: "/device:GPU:0"
  attr {
    key: "_class"
    value {
      list {
        s: "loc:@resnet_model/batch_normalization/AssignMovingAvg/Read/ReadVariableOp"
      }
    }
  }
  attr {
    key: "_output_shapes"
    value {
      list {
        shape {
        }
      }
    }
  }
  attr {
    key: "dtype"
    value {
      type: DT_FLOAT
    }
  }
  attr {
    key: "value"
    value {
      tensor {
        dtype: DT_FLOAT
        tensor_shape {
        }
        float_val: 1.0
      }
    }
  }
}
node {
  name: "resnet_model/batch_normalization/AssignMovingAvg/sub"
  op: "Sub"
  input: "resnet_model/batch_normalization/AssignMovingAvg/sub/x"
  input: "resnet_model/batch_normalization/Const_2"
  device: "/device:GPU:0"
  attr {
    key: "T"
    value {
      type: DT_FLOAT
    }
  }
  attr {
    key: "_class"
    value {
      list {
        s: "loc:@resnet_model/batch_normalization/AssignMovingAvg/Read/ReadVariableOp"
      }
    }
  }
  attr {
    key: "_output_shapes"
    value {
      list {
        shape {
        }
      }
    }
  }
}
node {
  name: "resnet_model/batch_normalization/AssignMovingAvg/ReadVariableOp"
  op: "ReadVariableOp"
  input: "resnet_model/batch_normalization/moving_mean"
  device: "/device:GPU:0"
  attr {
    key: "_output_shapes"
    value {
      list {
        shape {
          dim {
            size: 16
          }
        }
      }
    }
  }
  attr {
    key: "dtype"
    value {
      type: DT_FLOAT
    }
  }
}
node {
  name: "resnet_model/batch_normalization/AssignMovingAvg/sub_1"
  op: "Sub"
  input: "resnet_model/batch_normalization/AssignMovingAvg/ReadVariableOp"
  input: "resnet_model/batch_normalization/FusedBatchNorm:1"
  device: "/device:GPU:0"
  attr {
    key: "T"
    value {
      type: DT_FLOAT
    }
  }
  attr {
    key: "_class"
    value {
      list {
        s: "loc:@resnet_model/batch_normalization/AssignMovingAvg/Read/ReadVariableOp"
      }
    }
  }
  attr {
    key: "_output_shapes"
    value {
      list {
        shape {
          dim {
            size: 16
          }
        }
      }
    }
  }
}
node {
  name: "resnet_model/batch_normalization/AssignMovingAvg/mul"
  op: "Mul"
  input: "resnet_model/batch_normalization/AssignMovingAvg/sub_1"
  input: "resnet_model/batch_normalization/AssignMovingAvg/sub"
  device: "/device:GPU:0"
  attr {
    key: "T"
    value {
      type: DT_FLOAT
    }
  }
  attr {
    key: "_class"
    value {
      list {
        s: "loc:@resnet_model/batch_normalization/AssignMovingAvg/Read/ReadVariableOp"
      }
    }
  }
  attr {
    key: "_output_shapes"
    value {
      list {
        shape {
          dim {
            size: 16
          }
        }
      }
    }
  }
}
node {
  name: "resnet_model/batch_normalization/AssignMovingAvg/AssignSubVariableOp"
  op: "AssignSubVariableOp"
  input: "resnet_model/batch_normalization/moving_mean"
  input: "resnet_model/batch_normalization/AssignMovingAvg/mul"
  device: "/device:GPU:0"
  attr {
    key: "_class"
    value {
      list {
        s: "loc:@resnet_model/batch_normalization/AssignMovingAvg/Read/ReadVariableOp"
      }
    }
  }
  attr {
    key: "dtype"
    value {
      type: DT_FLOAT
    }
  }
}
node {
  name: "resnet_model/batch_normalization/AssignMovingAvg/ReadVariableOp_1"
  op: "ReadVariableOp"
  input: "resnet_model/batch_normalization/moving_mean"
  input: "^resnet_model/batch_normalization/AssignMovingAvg/AssignSubVariableOp"
  device: "/device:GPU:0"
  attr {
    key: "_class"
    value {
      list {
        s: "loc:@resnet_model/batch_normalization/AssignMovingAvg/Read/ReadVariableOp"
      }
    }
  }
  attr {
    key: "_output_shapes"
    value {
      list {
        shape {
          dim {
            size: 16
          }
        }
      }
    }
  }
  attr {
    key: "dtype"
    value {
      type: DT_FLOAT
    }
  }
}
node {
  name: "resnet_model/batch_normalization/AssignMovingAvg_1/Read/ReadVariableOp"
  op: "ReadVariableOp"
  input: "resnet_model/batch_normalization/moving_variance"
  device: "/device:GPU:0"
  attr {
    key: "_output_shapes"
    value {
      list {
        shape {
          dim {
            size: 16
          }
        }
      }
    }
  }
  attr {
    key: "dtype"
    value {
      type: DT_FLOAT
    }
  }
}
node {
  name: "resnet_model/batch_normalization/AssignMovingAvg_1/Identity"
  op: "Identity"
  input: "resnet_model/batch_normalization/AssignMovingAvg_1/Read/ReadVariableOp"
  device: "/device:GPU:0"
  attr {
    key: "T"
    value {
      type: DT_FLOAT
    }
  }
  attr {
    key: "_output_shapes"
    value {
      list {
        shape {
          dim {
            size: 16
          }
        }
      }
    }
  }
}
node {
  name: "resnet_model/batch_normalization/AssignMovingAvg_1/sub/x"
  op: "Const"
  device: "/device:GPU:0"
  attr {
    key: "_class"
    value {
      list {
        s: "loc:@resnet_model/batch_normalization/AssignMovingAvg_1/Read/ReadVariableOp"
      }
    }
  }
  attr {
    key: "_output_shapes"
    value {
      list {
        shape {
        }
      }
    }
  }
  attr {
    key: "dtype"
    value {
      type: DT_FLOAT
    }
  }
  attr {
    key: "value"
    value {
      tensor {
        dtype: DT_FLOAT
        tensor_shape {
        }
        float_val: 1.0
      }
    }
  }
}
node {
  name: "resnet_model/batch_normalization/AssignMovingAvg_1/sub"
  op: "Sub"
  input: "resnet_model/batch_normalization/AssignMovingAvg_1/sub/x"
  input: "resnet_model/batch_normalization/Const_2"
  device: "/device:GPU:0"
  attr {
    key: "T"
    value {
      type: DT_FLOAT
    }
  }
  attr {
    key: "_class"
    value {
      list {
        s: "loc:@resnet_model/batch_normalization/AssignMovingAvg_1/Read/ReadVariableOp"
      }
    }
  }
  attr {
    key: "_output_shapes"
    value {
      list {
        shape {
        }
      }
    }
  }
}
node {
  name: "resnet_model/batch_normalization/AssignMovingAvg_1/ReadVariableOp"
  op: "ReadVariableOp"
  input: "resnet_model/batch_normalization/moving_variance"
  device: "/device:GPU:0"
  attr {
    key: "_output_shapes"
    value {
      list {
        shape {
          dim {
            size: 16
          }
        }
      }
    }
  }
  attr {
    key: "dtype"
    value {
      type: DT_FLOAT
    }
  }
}
node {
  name: "resnet_model/batch_normalization/AssignMovingAvg_1/sub_1"
  op: "Sub"
  input: "resnet_model/batch_normalization/AssignMovingAvg_1/ReadVariableOp"
  input: "resnet_model/batch_normalization/FusedBatchNorm:2"
  device: "/device:GPU:0"
  attr {
    key: "T"
    value {
      type: DT_FLOAT
    }
  }
  attr {
    key: "_class"
    value {
      list {
        s: "loc:@resnet_model/batch_normalization/AssignMovingAvg_1/Read/ReadVariableOp"
      }
    }
  }
  attr {
    key: "_output_shapes"
    value {
      list {
        shape {
          dim {
            size: 16
          }
        }
      }
    }
  }
}
node {
  name: "resnet_model/batch_normalization/AssignMovingAvg_1/mul"
  op: "Mul"
  input: "resnet_model/batch_normalization/AssignMovingAvg_1/sub_1"
  input: "resnet_model/batch_normalization/AssignMovingAvg_1/sub"
  device: "/device:GPU:0"
  attr {
    key: "T"
    value {
      type: DT_FLOAT
    }
  }
  attr {
    key: "_class"
    value {
      list {
        s: "loc:@resnet_model/batch_normalization/AssignMovingAvg_1/Read/ReadVariableOp"
      }
    }
  }
  attr {
    key: "_output_shapes"
    value {
      list {
        shape {
          dim {
            size: 16
          }
        }
      }
    }
  }
}
node {
  name: "resnet_model/batch_normalization/AssignMovingAvg_1/AssignSubVariableOp"
  op: "AssignSubVariableOp"
  input: "resnet_model/batch_normalization/moving_variance"
  input: "resnet_model/batch_normalization/AssignMovingAvg_1/mul"
  device: "/device:GPU:0"
  attr {
    key: "_class"
    value {
      list {
        s: "loc:@resnet_model/batch_normalization/AssignMovingAvg_1/Read/ReadVariableOp"
      }
    }
  }
  attr {
    key: "dtype"
    value {
      type: DT_FLOAT
    }
  }
}
node {
  name: "resnet_model/batch_normalization/AssignMovingAvg_1/ReadVariableOp_1"
  op: "ReadVariableOp"
  input: "resnet_model/batch_normalization/moving_variance"
  input: "^resnet_model/batch_normalization/AssignMovingAvg_1/AssignSubVariableOp"
  device: "/device:GPU:0"
  attr {
    key: "_class"
    value {
      list {
        s: "loc:@resnet_model/batch_normalization/AssignMovingAvg_1/Read/ReadVariableOp"
      }
    }
  }
  attr {
    key: "_output_shapes"
    value {
      list {
        shape {
          dim {
            size: 16
          }
        }
      }
    }
  }
  attr {
    key: "dtype"
    value {
      type: DT_FLOAT
    }
  }
}
node {
  name: "resnet_model/Relu"
  op: "Relu"
  input: "resnet_model/batch_normalization/FusedBatchNorm"
  device: "/device:GPU:0"
  attr {
    key: "T"
    value {
      type: DT_FLOAT
    }
  }
  attr {
    key: "_output_shapes"
    value {
      list {
        shape {
          dim {
            size: -1
          }
          dim {
            size: 32
          }
          dim {
            size: 32
          }
          dim {
            size: 16
          }
        }
      }
    }
  }
}
node {
  name: "resnet_model/conv2d_1/kernel/Initializer/truncated_normal/shape"
  op: "Const"
  attr {
    key: "_class"
    value {
      list {
        s: "loc:@resnet_model/conv2d_1/kernel"
      }
    }
  }
  attr {
    key: "_output_shapes"
    value {
      list {
        shape {
          dim {
            size: 4
          }
        }
      }
    }
  }
  attr {
    key: "dtype"
    value {
      type: DT_INT32
    }
  }
  attr {
    key: "value"
    value {
      tensor {
        dtype: DT_INT32
        tensor_shape {
          dim {
            size: 4
          }
        }
        tensor_content: "\001\000\000\000\001\000\000\000\020\000\000\000\020\000\000\000"
      }
    }
  }
}
node {
  name: "resnet_model/conv2d_1/kernel/Initializer/truncated_normal/mean"
  op: "Const"
  attr {
    key: "_class"
    value {
      list {
        s: "loc:@resnet_model/conv2d_1/kernel"
      }
    }
  }
  attr {
    key: "_output_shapes"
    value {
      list {
        shape {
        }
      }
    }
  }
  attr {
    key: "dtype"
    value {
      type: DT_FLOAT
    }
  }
  attr {
    key: "value"
    value {
      tensor {
        dtype: DT_FLOAT
        tensor_shape {
        }
        float_val: 0.0
      }
    }
  }
}
node {
  name: "resnet_model/conv2d_1/kernel/Initializer/truncated_normal/stddev"
  op: "Const"
  attr {
    key: "_class"
    value {
      list {
        s: "loc:@resnet_model/conv2d_1/kernel"
      }
    }
  }
  attr {
    key: "_output_shapes"
    value {
      list {
        shape {
        }
      }
    }
  }
  attr {
    key: "dtype"
    value {
      type: DT_FLOAT
    }
  }
  attr {
    key: "value"
    value {
      tensor {
        dtype: DT_FLOAT
        tensor_shape {
        }
        float_val: 0.284211814404
      }
    }
  }
}
node {
  name: "resnet_model/conv2d_1/kernel/Initializer/truncated_normal/TruncatedNormal"
  op: "TruncatedNormal"
  input: "resnet_model/conv2d_1/kernel/Initializer/truncated_normal/shape"
  attr {
    key: "T"
    value {
      type: DT_INT32
    }
  }
  attr {
    key: "_class"
    value {
      list {
        s: "loc:@resnet_model/conv2d_1/kernel"
      }
    }
  }
  attr {
    key: "_output_shapes"
    value {
      list {
        shape {
          dim {
            size: 1
          }
          dim {
            size: 1
          }
          dim {
            size: 16
          }
          dim {
            size: 16
          }
        }
      }
    }
  }
  attr {
    key: "dtype"
    value {
      type: DT_FLOAT
    }
  }
  attr {
    key: "seed"
    value {
      i: 0
    }
  }
  attr {
    key: "seed2"
    value {
      i: 0
    }
  }
}
node {
  name: "resnet_model/conv2d_1/kernel/Initializer/truncated_normal/mul"
  op: "Mul"
  input: "resnet_model/conv2d_1/kernel/Initializer/truncated_normal/TruncatedNormal"
  input: "resnet_model/conv2d_1/kernel/Initializer/truncated_normal/stddev"
  attr {
    key: "T"
    value {
      type: DT_FLOAT
    }
  }
  attr {
    key: "_class"
    value {
      list {
        s: "loc:@resnet_model/conv2d_1/kernel"
      }
    }
  }
  attr {
    key: "_output_shapes"
    value {
      list {
        shape {
          dim {
            size: 1
          }
          dim {
            size: 1
          }
          dim {
            size: 16
          }
          dim {
            size: 16
          }
        }
      }
    }
  }
}
node {
  name: "resnet_model/conv2d_1/kernel/Initializer/truncated_normal"
  op: "Add"
  input: "resnet_model/conv2d_1/kernel/Initializer/truncated_normal/mul"
  input: "resnet_model/conv2d_1/kernel/Initializer/truncated_normal/mean"
  attr {
    key: "T"
    value {
      type: DT_FLOAT
    }
  }
  attr {
    key: "_class"
    value {
      list {
        s: "loc:@resnet_model/conv2d_1/kernel"
      }
    }
  }
  attr {
    key: "_output_shapes"
    value {
      list {
        shape {
          dim {
            size: 1
          }
          dim {
            size: 1
          }
          dim {
            size: 16
          }
          dim {
            size: 16
          }
        }
      }
    }
  }
}
node {
  name: "resnet_model/conv2d_1/kernel"
  op: "VarHandleOp"
  device: "/device:GPU:0"
  attr {
    key: "_class"
    value {
      list {
        s: "loc:@resnet_model/conv2d_1/kernel"
      }
    }
  }
  attr {
    key: "_output_shapes"
    value {
      list {
        shape {
        }
      }
    }
  }
  attr {
    key: "container"
    value {
      s: ""
    }
  }
  attr {
    key: "dtype"
    value {
      type: DT_FLOAT
    }
  }
  attr {
    key: "shape"
    value {
      shape {
        dim {
          size: 1
        }
        dim {
          size: 1
        }
        dim {
          size: 16
        }
        dim {
          size: 16
        }
      }
    }
  }
  attr {
    key: "shared_name"
    value {
      s: "resnet_model/conv2d_1/kernel"
    }
  }
}
node {
  name: "resnet_model/conv2d_1/kernel/IsInitialized/VarIsInitializedOp"
  op: "VarIsInitializedOp"
  input: "resnet_model/conv2d_1/kernel"
  device: "/device:GPU:0"
  attr {
    key: "_output_shapes"
    value {
      list {
        shape {
        }
      }
    }
  }
}
node {
  name: "resnet_model/conv2d_1/kernel/Assign"
  op: "AssignVariableOp"
  input: "resnet_model/conv2d_1/kernel"
  input: "resnet_model/conv2d_1/kernel/Initializer/truncated_normal"
  device: "/device:GPU:0"
  attr {
    key: "_class"
    value {
      list {
        s: "loc:@resnet_model/conv2d_1/kernel"
      }
    }
  }
  attr {
    key: "dtype"
    value {
      type: DT_FLOAT
    }
  }
}
node {
  name: "resnet_model/conv2d_1/kernel/Read/ReadVariableOp"
  op: "ReadVariableOp"
  input: "resnet_model/conv2d_1/kernel"
  device: "/device:GPU:0"
  attr {
    key: "_class"
    value {
      list {
        s: "loc:@resnet_model/conv2d_1/kernel"
      }
    }
  }
  attr {
    key: "_output_shapes"
    value {
      list {
        shape {
          dim {
            size: 1
          }
          dim {
            size: 1
          }
          dim {
            size: 16
          }
          dim {
            size: 16
          }
        }
      }
    }
  }
  attr {
    key: "dtype"
    value {
      type: DT_FLOAT
    }
  }
}
node {
  name: "resnet_model/conv2d_1/dilation_rate"
  op: "Const"
  device: "/device:GPU:0"
  attr {
    key: "_output_shapes"
    value {
      list {
        shape {
          dim {
            size: 2
          }
        }
      }
    }
  }
  attr {
    key: "dtype"
    value {
      type: DT_INT32
    }
  }
  attr {
    key: "value"
    value {
      tensor {
        dtype: DT_INT32
        tensor_shape {
          dim {
            size: 2
          }
        }
        tensor_content: "\001\000\000\000\001\000\000\000"
      }
    }
  }
}
node {
  name: "resnet_model/conv2d_1/Conv2D/ReadVariableOp"
  op: "ReadVariableOp"
  input: "resnet_model/conv2d_1/kernel"
  device: "/device:GPU:0"
  attr {
    key: "_output_shapes"
    value {
      list {
        shape {
          dim {
            size: 1
          }
          dim {
            size: 1
          }
          dim {
            size: 16
          }
          dim {
            size: 16
          }
        }
      }
    }
  }
  attr {
    key: "dtype"
    value {
      type: DT_FLOAT
    }
  }
}
node {
  name: "resnet_model/conv2d_1/Conv2D"
  op: "Conv2D"
  input: "resnet_model/Relu"
  input: "resnet_model/conv2d_1/Conv2D/ReadVariableOp"
  device: "/device:GPU:0"
  attr {
    key: "T"
    value {
      type: DT_FLOAT
    }
  }
  attr {
    key: "_output_shapes"
    value {
      list {
        shape {
          dim {
            size: -1
          }
          dim {
            size: 32
          }
          dim {
            size: 32
          }
          dim {
            size: 16
          }
        }
      }
    }
  }
  attr {
    key: "data_format"
    value {
      s: "NHWC"
    }
  }
  attr {
    key: "dilations"
    value {
      list {
        i: 1
        i: 1
        i: 1
        i: 1
      }
    }
  }
  attr {
    key: "padding"
    value {
      s: "SAME"
    }
  }
  attr {
    key: "strides"
    value {
      list {
        i: 1
        i: 1
        i: 1
        i: 1
      }
    }
  }
  attr {
    key: "use_cudnn_on_gpu"
    value {
      b: true
    }
  }
}
node {
  name: "resnet_model/batch_normalization_1/gamma/Initializer/ones"
  op: "Const"
  attr {
    key: "_class"
    value {
      list {
        s: "loc:@resnet_model/batch_normalization_1/gamma"
      }
    }
  }
  attr {
    key: "_output_shapes"
    value {
      list {
        shape {
          dim {
            size: 16
          }
        }
      }
    }
  }
  attr {
    key: "dtype"
    value {
      type: DT_FLOAT
    }
  }
  attr {
    key: "value"
    value {
      tensor {
        dtype: DT_FLOAT
        tensor_shape {
          dim {
            size: 16
          }
        }
        float_val: 1.0
      }
    }
  }
}
node {
  name: "resnet_model/batch_normalization_1/gamma"
  op: "VarHandleOp"
  device: "/device:GPU:0"
  attr {
    key: "_class"
    value {
      list {
        s: "loc:@resnet_model/batch_normalization_1/gamma"
      }
    }
  }
  attr {
    key: "_output_shapes"
    value {
      list {
        shape {
        }
      }
    }
  }
  attr {
    key: "container"
    value {
      s: ""
    }
  }
  attr {
    key: "dtype"
    value {
      type: DT_FLOAT
    }
  }
  attr {
    key: "shape"
    value {
      shape {
        dim {
          size: 16
        }
      }
    }
  }
  attr {
    key: "shared_name"
    value {
      s: "resnet_model/batch_normalization_1/gamma"
    }
  }
}
node {
  name: "resnet_model/batch_normalization_1/gamma/IsInitialized/VarIsInitializedOp"
  op: "VarIsInitializedOp"
  input: "resnet_model/batch_normalization_1/gamma"
  device: "/device:GPU:0"
  attr {
    key: "_output_shapes"
    value {
      list {
        shape {
        }
      }
    }
  }
}
node {
  name: "resnet_model/batch_normalization_1/gamma/Assign"
  op: "AssignVariableOp"
  input: "resnet_model/batch_normalization_1/gamma"
  input: "resnet_model/batch_normalization_1/gamma/Initializer/ones"
  device: "/device:GPU:0"
  attr {
    key: "_class"
    value {
      list {
        s: "loc:@resnet_model/batch_normalization_1/gamma"
      }
    }
  }
  attr {
    key: "dtype"
    value {
      type: DT_FLOAT
    }
  }
}
node {
  name: "resnet_model/batch_normalization_1/gamma/Read/ReadVariableOp"
  op: "ReadVariableOp"
  input: "resnet_model/batch_normalization_1/gamma"
  device: "/device:GPU:0"
  attr {
    key: "_class"
    value {
      list {
        s: "loc:@resnet_model/batch_normalization_1/gamma"
      }
    }
  }
  attr {
    key: "_output_shapes"
    value {
      list {
        shape {
          dim {
            size: 16
          }
        }
      }
    }
  }
  attr {
    key: "dtype"
    value {
      type: DT_FLOAT
    }
  }
}
node {
  name: "resnet_model/batch_normalization_1/beta/Initializer/zeros"
  op: "Const"
  attr {
    key: "_class"
    value {
      list {
        s: "loc:@resnet_model/batch_normalization_1/beta"
      }
    }
  }
  attr {
    key: "_output_shapes"
    value {
      list {
        shape {
          dim {
            size: 16
          }
        }
      }
    }
  }
  attr {
    key: "dtype"
    value {
      type: DT_FLOAT
    }
  }
  attr {
    key: "value"
    value {
      tensor {
        dtype: DT_FLOAT
        tensor_shape {
          dim {
            size: 16
          }
        }
        float_val: 0.0
      }
    }
  }
}
node {
  name: "resnet_model/batch_normalization_1/beta"
  op: "VarHandleOp"
  device: "/device:GPU:0"
  attr {
    key: "_class"
    value {
      list {
        s: "loc:@resnet_model/batch_normalization_1/beta"
      }
    }
  }
  attr {
    key: "_output_shapes"
    value {
      list {
        shape {
        }
      }
    }
  }
  attr {
    key: "container"
    value {
      s: ""
    }
  }
  attr {
    key: "dtype"
    value {
      type: DT_FLOAT
    }
  }
  attr {
    key: "shape"
    value {
      shape {
        dim {
          size: 16
        }
      }
    }
  }
  attr {
    key: "shared_name"
    value {
      s: "resnet_model/batch_normalization_1/beta"
    }
  }
}
node {
  name: "resnet_model/batch_normalization_1/beta/IsInitialized/VarIsInitializedOp"
  op: "VarIsInitializedOp"
  input: "resnet_model/batch_normalization_1/beta"
  device: "/device:GPU:0"
  attr {
    key: "_output_shapes"
    value {
      list {
        shape {
        }
      }
    }
  }
}
node {
  name: "resnet_model/batch_normalization_1/beta/Assign"
  op: "AssignVariableOp"
  input: "resnet_model/batch_normalization_1/beta"
  input: "resnet_model/batch_normalization_1/beta/Initializer/zeros"
  device: "/device:GPU:0"
  attr {
    key: "_class"
    value {
      list {
        s: "loc:@resnet_model/batch_normalization_1/beta"
      }
    }
  }
  attr {
    key: "dtype"
    value {
      type: DT_FLOAT
    }
  }
}
node {
  name: "resnet_model/batch_normalization_1/beta/Read/ReadVariableOp"
  op: "ReadVariableOp"
  input: "resnet_model/batch_normalization_1/beta"
  device: "/device:GPU:0"
  attr {
    key: "_class"
    value {
      list {
        s: "loc:@resnet_model/batch_normalization_1/beta"
      }
    }
  }
  attr {
    key: "_output_shapes"
    value {
      list {
        shape {
          dim {
            size: 16
          }
        }
      }
    }
  }
  attr {
    key: "dtype"
    value {
      type: DT_FLOAT
    }
  }
}
node {
  name: "resnet_model/batch_normalization_1/moving_mean/Initializer/zeros"
  op: "Const"
  attr {
    key: "_class"
    value {
      list {
        s: "loc:@resnet_model/batch_normalization_1/moving_mean"
      }
    }
  }
  attr {
    key: "_output_shapes"
    value {
      list {
        shape {
          dim {
            size: 16
          }
        }
      }
    }
  }
  attr {
    key: "dtype"
    value {
      type: DT_FLOAT
    }
  }
  attr {
    key: "value"
    value {
      tensor {
        dtype: DT_FLOAT
        tensor_shape {
          dim {
            size: 16
          }
        }
        float_val: 0.0
      }
    }
  }
}
node {
  name: "resnet_model/batch_normalization_1/moving_mean"
  op: "VarHandleOp"
  device: "/device:GPU:0"
  attr {
    key: "_class"
    value {
      list {
        s: "loc:@resnet_model/batch_normalization_1/moving_mean"
      }
    }
  }
  attr {
    key: "_output_shapes"
    value {
      list {
        shape {
        }
      }
    }
  }
  attr {
    key: "container"
    value {
      s: ""
    }
  }
  attr {
    key: "dtype"
    value {
      type: DT_FLOAT
    }
  }
  attr {
    key: "shape"
    value {
      shape {
        dim {
          size: 16
        }
      }
    }
  }
  attr {
    key: "shared_name"
    value {
      s: "resnet_model/batch_normalization_1/moving_mean"
    }
  }
}
node {
  name: "resnet_model/batch_normalization_1/moving_mean/IsInitialized/VarIsInitializedOp"
  op: "VarIsInitializedOp"
  input: "resnet_model/batch_normalization_1/moving_mean"
  device: "/device:GPU:0"
  attr {
    key: "_output_shapes"
    value {
      list {
        shape {
        }
      }
    }
  }
}
node {
  name: "resnet_model/batch_normalization_1/moving_mean/Assign"
  op: "AssignVariableOp"
  input: "resnet_model/batch_normalization_1/moving_mean"
  input: "resnet_model/batch_normalization_1/moving_mean/Initializer/zeros"
  device: "/device:GPU:0"
  attr {
    key: "_class"
    value {
      list {
        s: "loc:@resnet_model/batch_normalization_1/moving_mean"
      }
    }
  }
  attr {
    key: "dtype"
    value {
      type: DT_FLOAT
    }
  }
}
node {
  name: "resnet_model/batch_normalization_1/moving_mean/Read/ReadVariableOp"
  op: "ReadVariableOp"
  input: "resnet_model/batch_normalization_1/moving_mean"
  device: "/device:GPU:0"
  attr {
    key: "_class"
    value {
      list {
        s: "loc:@resnet_model/batch_normalization_1/moving_mean"
      }
    }
  }
  attr {
    key: "_output_shapes"
    value {
      list {
        shape {
          dim {
            size: 16
          }
        }
      }
    }
  }
  attr {
    key: "dtype"
    value {
      type: DT_FLOAT
    }
  }
}
node {
  name: "resnet_model/batch_normalization_1/moving_variance/Initializer/ones"
  op: "Const"
  attr {
    key: "_class"
    value {
      list {
        s: "loc:@resnet_model/batch_normalization_1/moving_variance"
      }
    }
  }
  attr {
    key: "_output_shapes"
    value {
      list {
        shape {
          dim {
            size: 16
          }
        }
      }
    }
  }
  attr {
    key: "dtype"
    value {
      type: DT_FLOAT
    }
  }
  attr {
    key: "value"
    value {
      tensor {
        dtype: DT_FLOAT
        tensor_shape {
          dim {
            size: 16
          }
        }
        float_val: 1.0
      }
    }
  }
}
node {
  name: "resnet_model/batch_normalization_1/moving_variance"
  op: "VarHandleOp"
  device: "/device:GPU:0"
  attr {
    key: "_class"
    value {
      list {
        s: "loc:@resnet_model/batch_normalization_1/moving_variance"
      }
    }
  }
  attr {
    key: "_output_shapes"
    value {
      list {
        shape {
        }
      }
    }
  }
  attr {
    key: "container"
    value {
      s: ""
    }
  }
  attr {
    key: "dtype"
    value {
      type: DT_FLOAT
    }
  }
  attr {
    key: "shape"
    value {
      shape {
        dim {
          size: 16
        }
      }
    }
  }
  attr {
    key: "shared_name"
    value {
      s: "resnet_model/batch_normalization_1/moving_variance"
    }
  }
}
node {
  name: "resnet_model/batch_normalization_1/moving_variance/IsInitialized/VarIsInitializedOp"
  op: "VarIsInitializedOp"
  input: "resnet_model/batch_normalization_1/moving_variance"
  device: "/device:GPU:0"
  attr {
    key: "_output_shapes"
    value {
      list {
        shape {
        }
      }
    }
  }
}
node {
  name: "resnet_model/batch_normalization_1/moving_variance/Assign"
  op: "AssignVariableOp"
  input: "resnet_model/batch_normalization_1/moving_variance"
  input: "resnet_model/batch_normalization_1/moving_variance/Initializer/ones"
  device: "/device:GPU:0"
  attr {
    key: "_class"
    value {
      list {
        s: "loc:@resnet_model/batch_normalization_1/moving_variance"
      }
    }
  }
  attr {
    key: "dtype"
    value {
      type: DT_FLOAT
    }
  }
}
node {
  name: "resnet_model/batch_normalization_1/moving_variance/Read/ReadVariableOp"
  op: "ReadVariableOp"
  input: "resnet_model/batch_normalization_1/moving_variance"
  device: "/device:GPU:0"
  attr {
    key: "_class"
    value {
      list {
        s: "loc:@resnet_model/batch_normalization_1/moving_variance"
      }
    }
  }
  attr {
    key: "_output_shapes"
    value {
      list {
        shape {
          dim {
            size: 16
          }
        }
      }
    }
  }
  attr {
    key: "dtype"
    value {
      type: DT_FLOAT
    }
  }
}
node {
  name: "resnet_model/batch_normalization_1/ReadVariableOp"
  op: "ReadVariableOp"
  input: "resnet_model/batch_normalization_1/gamma"
  device: "/device:GPU:0"
  attr {
    key: "_output_shapes"
    value {
      list {
        shape {
          dim {
            size: 16
          }
        }
      }
    }
  }
  attr {
    key: "dtype"
    value {
      type: DT_FLOAT
    }
  }
}
node {
  name: "resnet_model/batch_normalization_1/ReadVariableOp_1"
  op: "ReadVariableOp"
  input: "resnet_model/batch_normalization_1/beta"
  device: "/device:GPU:0"
  attr {
    key: "_output_shapes"
    value {
      list {
        shape {
          dim {
            size: 16
          }
        }
      }
    }
  }
  attr {
    key: "dtype"
    value {
      type: DT_FLOAT
    }
  }
}
node {
  name: "resnet_model/batch_normalization_1/Const"
  op: "Const"
  device: "/device:GPU:0"
  attr {
    key: "_output_shapes"
    value {
      list {
        shape {
          dim {
          }
        }
      }
    }
  }
  attr {
    key: "dtype"
    value {
      type: DT_FLOAT
    }
  }
  attr {
    key: "value"
    value {
      tensor {
        dtype: DT_FLOAT
        tensor_shape {
          dim {
          }
        }
      }
    }
  }
}
node {
  name: "resnet_model/batch_normalization_1/Const_1"
  op: "Const"
  device: "/device:GPU:0"
  attr {
    key: "_output_shapes"
    value {
      list {
        shape {
          dim {
          }
        }
      }
    }
  }
  attr {
    key: "dtype"
    value {
      type: DT_FLOAT
    }
  }
  attr {
    key: "value"
    value {
      tensor {
        dtype: DT_FLOAT
        tensor_shape {
          dim {
          }
        }
      }
    }
  }
}
node {
  name: "resnet_model/batch_normalization_1/FusedBatchNorm"
  op: "FusedBatchNorm"
  input: "resnet_model/conv2d_1/Conv2D"
  input: "resnet_model/batch_normalization_1/ReadVariableOp"
  input: "resnet_model/batch_normalization_1/ReadVariableOp_1"
  input: "resnet_model/batch_normalization_1/Const"
  input: "resnet_model/batch_normalization_1/Const_1"
  device: "/device:GPU:0"
  attr {
    key: "T"
    value {
      type: DT_FLOAT
    }
  }
  attr {
    key: "_output_shapes"
    value {
      list {
        shape {
          dim {
            size: -1
          }
          dim {
            size: 32
          }
          dim {
            size: 32
          }
          dim {
            size: 16
          }
        }
        shape {
          dim {
            size: 16
          }
        }
        shape {
          dim {
            size: 16
          }
        }
        shape {
          dim {
            size: 16
          }
        }
        shape {
          dim {
            size: 16
          }
        }
      }
    }
  }
  attr {
    key: "data_format"
    value {
      s: "NHWC"
    }
  }
  attr {
    key: "epsilon"
    value {
      f: 1.00099996416e-05
    }
  }
  attr {
    key: "is_training"
    value {
      b: true
    }
  }
}
node {
  name: "resnet_model/batch_normalization_1/Const_2"
  op: "Const"
  device: "/device:GPU:0"
  attr {
    key: "_output_shapes"
    value {
      list {
        shape {
        }
      }
    }
  }
  attr {
    key: "dtype"
    value {
      type: DT_FLOAT
    }
  }
  attr {
    key: "value"
    value {
      tensor {
        dtype: DT_FLOAT
        tensor_shape {
        }
        float_val: 0.996999979019
      }
    }
  }
}
node {
  name: "resnet_model/batch_normalization_1/AssignMovingAvg/Read/ReadVariableOp"
  op: "ReadVariableOp"
  input: "resnet_model/batch_normalization_1/moving_mean"
  device: "/device:GPU:0"
  attr {
    key: "_output_shapes"
    value {
      list {
        shape {
          dim {
            size: 16
          }
        }
      }
    }
  }
  attr {
    key: "dtype"
    value {
      type: DT_FLOAT
    }
  }
}
node {
  name: "resnet_model/batch_normalization_1/AssignMovingAvg/Identity"
  op: "Identity"
  input: "resnet_model/batch_normalization_1/AssignMovingAvg/Read/ReadVariableOp"
  device: "/device:GPU:0"
  attr {
    key: "T"
    value {
      type: DT_FLOAT
    }
  }
  attr {
    key: "_output_shapes"
    value {
      list {
        shape {
          dim {
            size: 16
          }
        }
      }
    }
  }
}
node {
  name: "resnet_model/batch_normalization_1/AssignMovingAvg/sub/x"
  op: "Const"
  device: "/device:GPU:0"
  attr {
    key: "_class"
    value {
      list {
        s: "loc:@resnet_model/batch_normalization_1/AssignMovingAvg/Read/ReadVariableOp"
      }
    }
  }
  attr {
    key: "_output_shapes"
    value {
      list {
        shape {
        }
      }
    }
  }
  attr {
    key: "dtype"
    value {
      type: DT_FLOAT
    }
  }
  attr {
    key: "value"
    value {
      tensor {
        dtype: DT_FLOAT
        tensor_shape {
        }
        float_val: 1.0
      }
    }
  }
}
node {
  name: "resnet_model/batch_normalization_1/AssignMovingAvg/sub"
  op: "Sub"
  input: "resnet_model/batch_normalization_1/AssignMovingAvg/sub/x"
  input: "resnet_model/batch_normalization_1/Const_2"
  device: "/device:GPU:0"
  attr {
    key: "T"
    value {
      type: DT_FLOAT
    }
  }
  attr {
    key: "_class"
    value {
      list {
        s: "loc:@resnet_model/batch_normalization_1/AssignMovingAvg/Read/ReadVariableOp"
      }
    }
  }
  attr {
    key: "_output_shapes"
    value {
      list {
        shape {
        }
      }
    }
  }
}
node {
  name: "resnet_model/batch_normalization_1/AssignMovingAvg/ReadVariableOp"
  op: "ReadVariableOp"
  input: "resnet_model/batch_normalization_1/moving_mean"
  device: "/device:GPU:0"
  attr {
    key: "_output_shapes"
    value {
      list {
        shape {
          dim {
            size: 16
          }
        }
      }
    }
  }
  attr {
    key: "dtype"
    value {
      type: DT_FLOAT
    }
  }
}
node {
  name: "resnet_model/batch_normalization_1/AssignMovingAvg/sub_1"
  op: "Sub"
  input: "resnet_model/batch_normalization_1/AssignMovingAvg/ReadVariableOp"
  input: "resnet_model/batch_normalization_1/FusedBatchNorm:1"
  device: "/device:GPU:0"
  attr {
    key: "T"
    value {
      type: DT_FLOAT
    }
  }
  attr {
    key: "_class"
    value {
      list {
        s: "loc:@resnet_model/batch_normalization_1/AssignMovingAvg/Read/ReadVariableOp"
      }
    }
  }
  attr {
    key: "_output_shapes"
    value {
      list {
        shape {
          dim {
            size: 16
          }
        }
      }
    }
  }
}
node {
  name: "resnet_model/batch_normalization_1/AssignMovingAvg/mul"
  op: "Mul"
  input: "resnet_model/batch_normalization_1/AssignMovingAvg/sub_1"
  input: "resnet_model/batch_normalization_1/AssignMovingAvg/sub"
  device: "/device:GPU:0"
  attr {
    key: "T"
    value {
      type: DT_FLOAT
    }
  }
  attr {
    key: "_class"
    value {
      list {
        s: "loc:@resnet_model/batch_normalization_1/AssignMovingAvg/Read/ReadVariableOp"
      }
    }
  }
  attr {
    key: "_output_shapes"
    value {
      list {
        shape {
          dim {
            size: 16
          }
        }
      }
    }
  }
}
node {
  name: "resnet_model/batch_normalization_1/AssignMovingAvg/AssignSubVariableOp"
  op: "AssignSubVariableOp"
  input: "resnet_model/batch_normalization_1/moving_mean"
  input: "resnet_model/batch_normalization_1/AssignMovingAvg/mul"
  device: "/device:GPU:0"
  attr {
    key: "_class"
    value {
      list {
        s: "loc:@resnet_model/batch_normalization_1/AssignMovingAvg/Read/ReadVariableOp"
      }
    }
  }
  attr {
    key: "dtype"
    value {
      type: DT_FLOAT
    }
  }
}
node {
  name: "resnet_model/batch_normalization_1/AssignMovingAvg/ReadVariableOp_1"
  op: "ReadVariableOp"
  input: "resnet_model/batch_normalization_1/moving_mean"
  input: "^resnet_model/batch_normalization_1/AssignMovingAvg/AssignSubVariableOp"
  device: "/device:GPU:0"
  attr {
    key: "_class"
    value {
      list {
        s: "loc:@resnet_model/batch_normalization_1/AssignMovingAvg/Read/ReadVariableOp"
      }
    }
  }
  attr {
    key: "_output_shapes"
    value {
      list {
        shape {
          dim {
            size: 16
          }
        }
      }
    }
  }
  attr {
    key: "dtype"
    value {
      type: DT_FLOAT
    }
  }
}
node {
  name: "resnet_model/batch_normalization_1/AssignMovingAvg_1/Read/ReadVariableOp"
  op: "ReadVariableOp"
  input: "resnet_model/batch_normalization_1/moving_variance"
  device: "/device:GPU:0"
  attr {
    key: "_output_shapes"
    value {
      list {
        shape {
          dim {
            size: 16
          }
        }
      }
    }
  }
  attr {
    key: "dtype"
    value {
      type: DT_FLOAT
    }
  }
}
node {
  name: "resnet_model/batch_normalization_1/AssignMovingAvg_1/Identity"
  op: "Identity"
  input: "resnet_model/batch_normalization_1/AssignMovingAvg_1/Read/ReadVariableOp"
  device: "/device:GPU:0"
  attr {
    key: "T"
    value {
      type: DT_FLOAT
    }
  }
  attr {
    key: "_output_shapes"
    value {
      list {
        shape {
          dim {
            size: 16
          }
        }
      }
    }
  }
}
node {
  name: "resnet_model/batch_normalization_1/AssignMovingAvg_1/sub/x"
  op: "Const"
  device: "/device:GPU:0"
  attr {
    key: "_class"
    value {
      list {
        s: "loc:@resnet_model/batch_normalization_1/AssignMovingAvg_1/Read/ReadVariableOp"
      }
    }
  }
  attr {
    key: "_output_shapes"
    value {
      list {
        shape {
        }
      }
    }
  }
  attr {
    key: "dtype"
    value {
      type: DT_FLOAT
    }
  }
  attr {
    key: "value"
    value {
      tensor {
        dtype: DT_FLOAT
        tensor_shape {
        }
        float_val: 1.0
      }
    }
  }
}
node {
  name: "resnet_model/batch_normalization_1/AssignMovingAvg_1/sub"
  op: "Sub"
  input: "resnet_model/batch_normalization_1/AssignMovingAvg_1/sub/x"
  input: "resnet_model/batch_normalization_1/Const_2"
  device: "/device:GPU:0"
  attr {
    key: "T"
    value {
      type: DT_FLOAT
    }
  }
  attr {
    key: "_class"
    value {
      list {
        s: "loc:@resnet_model/batch_normalization_1/AssignMovingAvg_1/Read/ReadVariableOp"
      }
    }
  }
  attr {
    key: "_output_shapes"
    value {
      list {
        shape {
        }
      }
    }
  }
}
node {
  name: "resnet_model/batch_normalization_1/AssignMovingAvg_1/ReadVariableOp"
  op: "ReadVariableOp"
  input: "resnet_model/batch_normalization_1/moving_variance"
  device: "/device:GPU:0"
  attr {
    key: "_output_shapes"
    value {
      list {
        shape {
          dim {
            size: 16
          }
        }
      }
    }
  }
  attr {
    key: "dtype"
    value {
      type: DT_FLOAT
    }
  }
}
node {
  name: "resnet_model/batch_normalization_1/AssignMovingAvg_1/sub_1"
  op: "Sub"
  input: "resnet_model/batch_normalization_1/AssignMovingAvg_1/ReadVariableOp"
  input: "resnet_model/batch_normalization_1/FusedBatchNorm:2"
  device: "/device:GPU:0"
  attr {
    key: "T"
    value {
      type: DT_FLOAT
    }
  }
  attr {
    key: "_class"
    value {
      list {
        s: "loc:@resnet_model/batch_normalization_1/AssignMovingAvg_1/Read/ReadVariableOp"
      }
    }
  }
  attr {
    key: "_output_shapes"
    value {
      list {
        shape {
          dim {
            size: 16
          }
        }
      }
    }
  }
}
node {
  name: "resnet_model/batch_normalization_1/AssignMovingAvg_1/mul"
  op: "Mul"
  input: "resnet_model/batch_normalization_1/AssignMovingAvg_1/sub_1"
  input: "resnet_model/batch_normalization_1/AssignMovingAvg_1/sub"
  device: "/device:GPU:0"
  attr {
    key: "T"
    value {
      type: DT_FLOAT
    }
  }
  attr {
    key: "_class"
    value {
      list {
        s: "loc:@resnet_model/batch_normalization_1/AssignMovingAvg_1/Read/ReadVariableOp"
      }
    }
  }
  attr {
    key: "_output_shapes"
    value {
      list {
        shape {
          dim {
            size: 16
          }
        }
      }
    }
  }
}
node {
  name: "resnet_model/batch_normalization_1/AssignMovingAvg_1/AssignSubVariableOp"
  op: "AssignSubVariableOp"
  input: "resnet_model/batch_normalization_1/moving_variance"
  input: "resnet_model/batch_normalization_1/AssignMovingAvg_1/mul"
  device: "/device:GPU:0"
  attr {
    key: "_class"
    value {
      list {
        s: "loc:@resnet_model/batch_normalization_1/AssignMovingAvg_1/Read/ReadVariableOp"
      }
    }
  }
  attr {
    key: "dtype"
    value {
      type: DT_FLOAT
    }
  }
}
node {
  name: "resnet_model/batch_normalization_1/AssignMovingAvg_1/ReadVariableOp_1"
  op: "ReadVariableOp"
  input: "resnet_model/batch_normalization_1/moving_variance"
  input: "^resnet_model/batch_normalization_1/AssignMovingAvg_1/AssignSubVariableOp"
  device: "/device:GPU:0"
  attr {
    key: "_class"
    value {
      list {
        s: "loc:@resnet_model/batch_normalization_1/AssignMovingAvg_1/Read/ReadVariableOp"
      }
    }
  }
  attr {
    key: "_output_shapes"
    value {
      list {
        shape {
          dim {
            size: 16
          }
        }
      }
    }
  }
  attr {
    key: "dtype"
    value {
      type: DT_FLOAT
    }
  }
}
node {
  name: "resnet_model/conv2d_2/kernel/Initializer/truncated_normal/shape"
  op: "Const"
  attr {
    key: "_class"
    value {
      list {
        s: "loc:@resnet_model/conv2d_2/kernel"
      }
    }
  }
  attr {
    key: "_output_shapes"
    value {
      list {
        shape {
          dim {
            size: 4
          }
        }
      }
    }
  }
  attr {
    key: "dtype"
    value {
      type: DT_INT32
    }
  }
  attr {
    key: "value"
    value {
      tensor {
        dtype: DT_INT32
        tensor_shape {
          dim {
            size: 4
          }
        }
        tensor_content: "\003\000\000\000\003\000\000\000\020\000\000\000\020\000\000\000"
      }
    }
  }
}
node {
  name: "resnet_model/conv2d_2/kernel/Initializer/truncated_normal/mean"
  op: "Const"
  attr {
    key: "_class"
    value {
      list {
        s: "loc:@resnet_model/conv2d_2/kernel"
      }
    }
  }
  attr {
    key: "_output_shapes"
    value {
      list {
        shape {
        }
      }
    }
  }
  attr {
    key: "dtype"
    value {
      type: DT_FLOAT
    }
  }
  attr {
    key: "value"
    value {
      tensor {
        dtype: DT_FLOAT
        tensor_shape {
        }
        float_val: 0.0
      }
    }
  }
}
node {
  name: "resnet_model/conv2d_2/kernel/Initializer/truncated_normal/stddev"
  op: "Const"
  attr {
    key: "_class"
    value {
      list {
        s: "loc:@resnet_model/conv2d_2/kernel"
      }
    }
  }
  attr {
    key: "_output_shapes"
    value {
      list {
        shape {
        }
      }
    }
  }
  attr {
    key: "dtype"
    value {
      type: DT_FLOAT
    }
  }
  attr {
    key: "value"
    value {
      tensor {
        dtype: DT_FLOAT
        tensor_shape {
        }
        float_val: 0.0947372689843
      }
    }
  }
}
node {
  name: "resnet_model/conv2d_2/kernel/Initializer/truncated_normal/TruncatedNormal"
  op: "TruncatedNormal"
  input: "resnet_model/conv2d_2/kernel/Initializer/truncated_normal/shape"
  attr {
    key: "T"
    value {
      type: DT_INT32
    }
  }
  attr {
    key: "_class"
    value {
      list {
        s: "loc:@resnet_model/conv2d_2/kernel"
      }
    }
  }
  attr {
    key: "_output_shapes"
    value {
      list {
        shape {
          dim {
            size: 3
          }
          dim {
            size: 3
          }
          dim {
            size: 16
          }
          dim {
            size: 16
          }
        }
      }
    }
  }
  attr {
    key: "dtype"
    value {
      type: DT_FLOAT
    }
  }
  attr {
    key: "seed"
    value {
      i: 0
    }
  }
  attr {
    key: "seed2"
    value {
      i: 0
    }
  }
}
node {
  name: "resnet_model/conv2d_2/kernel/Initializer/truncated_normal/mul"
  op: "Mul"
  input: "resnet_model/conv2d_2/kernel/Initializer/truncated_normal/TruncatedNormal"
  input: "resnet_model/conv2d_2/kernel/Initializer/truncated_normal/stddev"
  attr {
    key: "T"
    value {
      type: DT_FLOAT
    }
  }
  attr {
    key: "_class"
    value {
      list {
        s: "loc:@resnet_model/conv2d_2/kernel"
      }
    }
  }
  attr {
    key: "_output_shapes"
    value {
      list {
        shape {
          dim {
            size: 3
          }
          dim {
            size: 3
          }
          dim {
            size: 16
          }
          dim {
            size: 16
          }
        }
      }
    }
  }
}
node {
  name: "resnet_model/conv2d_2/kernel/Initializer/truncated_normal"
  op: "Add"
  input: "resnet_model/conv2d_2/kernel/Initializer/truncated_normal/mul"
  input: "resnet_model/conv2d_2/kernel/Initializer/truncated_normal/mean"
  attr {
    key: "T"
    value {
      type: DT_FLOAT
    }
  }
  attr {
    key: "_class"
    value {
      list {
        s: "loc:@resnet_model/conv2d_2/kernel"
      }
    }
  }
  attr {
    key: "_output_shapes"
    value {
      list {
        shape {
          dim {
            size: 3
          }
          dim {
            size: 3
          }
          dim {
            size: 16
          }
          dim {
            size: 16
          }
        }
      }
    }
  }
}
node {
  name: "resnet_model/conv2d_2/kernel"
  op: "VarHandleOp"
  device: "/device:GPU:0"
  attr {
    key: "_class"
    value {
      list {
        s: "loc:@resnet_model/conv2d_2/kernel"
      }
    }
  }
  attr {
    key: "_output_shapes"
    value {
      list {
        shape {
        }
      }
    }
  }
  attr {
    key: "container"
    value {
      s: ""
    }
  }
  attr {
    key: "dtype"
    value {
      type: DT_FLOAT
    }
  }
  attr {
    key: "shape"
    value {
      shape {
        dim {
          size: 3
        }
        dim {
          size: 3
        }
        dim {
          size: 16
        }
        dim {
          size: 16
        }
      }
    }
  }
  attr {
    key: "shared_name"
    value {
      s: "resnet_model/conv2d_2/kernel"
    }
  }
}
node {
  name: "resnet_model/conv2d_2/kernel/IsInitialized/VarIsInitializedOp"
  op: "VarIsInitializedOp"
  input: "resnet_model/conv2d_2/kernel"
  device: "/device:GPU:0"
  attr {
    key: "_output_shapes"
    value {
      list {
        shape {
        }
      }
    }
  }
}
node {
  name: "resnet_model/conv2d_2/kernel/Assign"
  op: "AssignVariableOp"
  input: "resnet_model/conv2d_2/kernel"
  input: "resnet_model/conv2d_2/kernel/Initializer/truncated_normal"
  device: "/device:GPU:0"
  attr {
    key: "_class"
    value {
      list {
        s: "loc:@resnet_model/conv2d_2/kernel"
      }
    }
  }
  attr {
    key: "dtype"
    value {
      type: DT_FLOAT
    }
  }
}
node {
  name: "resnet_model/conv2d_2/kernel/Read/ReadVariableOp"
  op: "ReadVariableOp"
  input: "resnet_model/conv2d_2/kernel"
  device: "/device:GPU:0"
  attr {
    key: "_class"
    value {
      list {
        s: "loc:@resnet_model/conv2d_2/kernel"
      }
    }
  }
  attr {
    key: "_output_shapes"
    value {
      list {
        shape {
          dim {
            size: 3
          }
          dim {
            size: 3
          }
          dim {
            size: 16
          }
          dim {
            size: 16
          }
        }
      }
    }
  }
  attr {
    key: "dtype"
    value {
      type: DT_FLOAT
    }
  }
}
node {
  name: "resnet_model/conv2d_2/dilation_rate"
  op: "Const"
  device: "/device:GPU:0"
  attr {
    key: "_output_shapes"
    value {
      list {
        shape {
          dim {
            size: 2
          }
        }
      }
    }
  }
  attr {
    key: "dtype"
    value {
      type: DT_INT32
    }
  }
  attr {
    key: "value"
    value {
      tensor {
        dtype: DT_INT32
        tensor_shape {
          dim {
            size: 2
          }
        }
        tensor_content: "\001\000\000\000\001\000\000\000"
      }
    }
  }
}
node {
  name: "resnet_model/conv2d_2/Conv2D/ReadVariableOp"
  op: "ReadVariableOp"
  input: "resnet_model/conv2d_2/kernel"
  device: "/device:GPU:0"
  attr {
    key: "_output_shapes"
    value {
      list {
        shape {
          dim {
            size: 3
          }
          dim {
            size: 3
          }
          dim {
            size: 16
          }
          dim {
            size: 16
          }
        }
      }
    }
  }
  attr {
    key: "dtype"
    value {
      type: DT_FLOAT
    }
  }
}
node {
  name: "resnet_model/conv2d_2/Conv2D"
  op: "Conv2D"
  input: "resnet_model/Relu"
  input: "resnet_model/conv2d_2/Conv2D/ReadVariableOp"
  device: "/device:GPU:0"
  attr {
    key: "T"
    value {
      type: DT_FLOAT
    }
  }
  attr {
    key: "_output_shapes"
    value {
      list {
        shape {
          dim {
            size: -1
          }
          dim {
            size: 32
          }
          dim {
            size: 32
          }
          dim {
            size: 16
          }
        }
      }
    }
  }
  attr {
    key: "data_format"
    value {
      s: "NHWC"
    }
  }
  attr {
    key: "dilations"
    value {
      list {
        i: 1
        i: 1
        i: 1
        i: 1
      }
    }
  }
  attr {
    key: "padding"
    value {
      s: "SAME"
    }
  }
  attr {
    key: "strides"
    value {
      list {
        i: 1
        i: 1
        i: 1
        i: 1
      }
    }
  }
  attr {
    key: "use_cudnn_on_gpu"
    value {
      b: true
    }
  }
}
node {
  name: "resnet_model/batch_normalization_2/gamma/Initializer/ones"
  op: "Const"
  attr {
    key: "_class"
    value {
      list {
        s: "loc:@resnet_model/batch_normalization_2/gamma"
      }
    }
  }
  attr {
    key: "_output_shapes"
    value {
      list {
        shape {
          dim {
            size: 16
          }
        }
      }
    }
  }
  attr {
    key: "dtype"
    value {
      type: DT_FLOAT
    }
  }
  attr {
    key: "value"
    value {
      tensor {
        dtype: DT_FLOAT
        tensor_shape {
          dim {
            size: 16
          }
        }
        float_val: 1.0
      }
    }
  }
}
node {
  name: "resnet_model/batch_normalization_2/gamma"
  op: "VarHandleOp"
  device: "/device:GPU:0"
  attr {
    key: "_class"
    value {
      list {
        s: "loc:@resnet_model/batch_normalization_2/gamma"
      }
    }
  }
  attr {
    key: "_output_shapes"
    value {
      list {
        shape {
        }
      }
    }
  }
  attr {
    key: "container"
    value {
      s: ""
    }
  }
  attr {
    key: "dtype"
    value {
      type: DT_FLOAT
    }
  }
  attr {
    key: "shape"
    value {
      shape {
        dim {
          size: 16
        }
      }
    }
  }
  attr {
    key: "shared_name"
    value {
      s: "resnet_model/batch_normalization_2/gamma"
    }
  }
}
node {
  name: "resnet_model/batch_normalization_2/gamma/IsInitialized/VarIsInitializedOp"
  op: "VarIsInitializedOp"
  input: "resnet_model/batch_normalization_2/gamma"
  device: "/device:GPU:0"
  attr {
    key: "_output_shapes"
    value {
      list {
        shape {
        }
      }
    }
  }
}
node {
  name: "resnet_model/batch_normalization_2/gamma/Assign"
  op: "AssignVariableOp"
  input: "resnet_model/batch_normalization_2/gamma"
  input: "resnet_model/batch_normalization_2/gamma/Initializer/ones"
  device: "/device:GPU:0"
  attr {
    key: "_class"
    value {
      list {
        s: "loc:@resnet_model/batch_normalization_2/gamma"
      }
    }
  }
  attr {
    key: "dtype"
    value {
      type: DT_FLOAT
    }
  }
}
node {
  name: "resnet_model/batch_normalization_2/gamma/Read/ReadVariableOp"
  op: "ReadVariableOp"
  input: "resnet_model/batch_normalization_2/gamma"
  device: "/device:GPU:0"
  attr {
    key: "_class"
    value {
      list {
        s: "loc:@resnet_model/batch_normalization_2/gamma"
      }
    }
  }
  attr {
    key: "_output_shapes"
    value {
      list {
        shape {
          dim {
            size: 16
          }
        }
      }
    }
  }
  attr {
    key: "dtype"
    value {
      type: DT_FLOAT
    }
  }
}
node {
  name: "resnet_model/batch_normalization_2/beta/Initializer/zeros"
  op: "Const"
  attr {
    key: "_class"
    value {
      list {
        s: "loc:@resnet_model/batch_normalization_2/beta"
      }
    }
  }
  attr {
    key: "_output_shapes"
    value {
      list {
        shape {
          dim {
            size: 16
          }
        }
      }
    }
  }
  attr {
    key: "dtype"
    value {
      type: DT_FLOAT
    }
  }
  attr {
    key: "value"
    value {
      tensor {
        dtype: DT_FLOAT
        tensor_shape {
          dim {
            size: 16
          }
        }
        float_val: 0.0
      }
    }
  }
}
node {
  name: "resnet_model/batch_normalization_2/beta"
  op: "VarHandleOp"
  device: "/device:GPU:0"
  attr {
    key: "_class"
    value {
      list {
        s: "loc:@resnet_model/batch_normalization_2/beta"
      }
    }
  }
  attr {
    key: "_output_shapes"
    value {
      list {
        shape {
        }
      }
    }
  }
  attr {
    key: "container"
    value {
      s: ""
    }
  }
  attr {
    key: "dtype"
    value {
      type: DT_FLOAT
    }
  }
  attr {
    key: "shape"
    value {
      shape {
        dim {
          size: 16
        }
      }
    }
  }
  attr {
    key: "shared_name"
    value {
      s: "resnet_model/batch_normalization_2/beta"
    }
  }
}
node {
  name: "resnet_model/batch_normalization_2/beta/IsInitialized/VarIsInitializedOp"
  op: "VarIsInitializedOp"
  input: "resnet_model/batch_normalization_2/beta"
  device: "/device:GPU:0"
  attr {
    key: "_output_shapes"
    value {
      list {
        shape {
        }
      }
    }
  }
}
node {
  name: "resnet_model/batch_normalization_2/beta/Assign"
  op: "AssignVariableOp"
  input: "resnet_model/batch_normalization_2/beta"
  input: "resnet_model/batch_normalization_2/beta/Initializer/zeros"
  device: "/device:GPU:0"
  attr {
    key: "_class"
    value {
      list {
        s: "loc:@resnet_model/batch_normalization_2/beta"
      }
    }
  }
  attr {
    key: "dtype"
    value {
      type: DT_FLOAT
    }
  }
}
node {
  name: "resnet_model/batch_normalization_2/beta/Read/ReadVariableOp"
  op: "ReadVariableOp"
  input: "resnet_model/batch_normalization_2/beta"
  device: "/device:GPU:0"
  attr {
    key: "_class"
    value {
      list {
        s: "loc:@resnet_model/batch_normalization_2/beta"
      }
    }
  }
  attr {
    key: "_output_shapes"
    value {
      list {
        shape {
          dim {
            size: 16
          }
        }
      }
    }
  }
  attr {
    key: "dtype"
    value {
      type: DT_FLOAT
    }
  }
}
node {
  name: "resnet_model/batch_normalization_2/moving_mean/Initializer/zeros"
  op: "Const"
  attr {
    key: "_class"
    value {
      list {
        s: "loc:@resnet_model/batch_normalization_2/moving_mean"
      }
    }
  }
  attr {
    key: "_output_shapes"
    value {
      list {
        shape {
          dim {
            size: 16
          }
        }
      }
    }
  }
  attr {
    key: "dtype"
    value {
      type: DT_FLOAT
    }
  }
  attr {
    key: "value"
    value {
      tensor {
        dtype: DT_FLOAT
        tensor_shape {
          dim {
            size: 16
          }
        }
        float_val: 0.0
      }
    }
  }
}
node {
  name: "resnet_model/batch_normalization_2/moving_mean"
  op: "VarHandleOp"
  device: "/device:GPU:0"
  attr {
    key: "_class"
    value {
      list {
        s: "loc:@resnet_model/batch_normalization_2/moving_mean"
      }
    }
  }
  attr {
    key: "_output_shapes"
    value {
      list {
        shape {
        }
      }
    }
  }
  attr {
    key: "container"
    value {
      s: ""
    }
  }
  attr {
    key: "dtype"
    value {
      type: DT_FLOAT
    }
  }
  attr {
    key: "shape"
    value {
      shape {
        dim {
          size: 16
        }
      }
    }
  }
  attr {
    key: "shared_name"
    value {
      s: "resnet_model/batch_normalization_2/moving_mean"
    }
  }
}
node {
  name: "resnet_model/batch_normalization_2/moving_mean/IsInitialized/VarIsInitializedOp"
  op: "VarIsInitializedOp"
  input: "resnet_model/batch_normalization_2/moving_mean"
  device: "/device:GPU:0"
  attr {
    key: "_output_shapes"
    value {
      list {
        shape {
        }
      }
    }
  }
}
node {
  name: "resnet_model/batch_normalization_2/moving_mean/Assign"
  op: "AssignVariableOp"
  input: "resnet_model/batch_normalization_2/moving_mean"
  input: "resnet_model/batch_normalization_2/moving_mean/Initializer/zeros"
  device: "/device:GPU:0"
  attr {
    key: "_class"
    value {
      list {
        s: "loc:@resnet_model/batch_normalization_2/moving_mean"
      }
    }
  }
  attr {
    key: "dtype"
    value {
      type: DT_FLOAT
    }
  }
}
node {
  name: "resnet_model/batch_normalization_2/moving_mean/Read/ReadVariableOp"
  op: "ReadVariableOp"
  input: "resnet_model/batch_normalization_2/moving_mean"
  device: "/device:GPU:0"
  attr {
    key: "_class"
    value {
      list {
        s: "loc:@resnet_model/batch_normalization_2/moving_mean"
      }
    }
  }
  attr {
    key: "_output_shapes"
    value {
      list {
        shape {
          dim {
            size: 16
          }
        }
      }
    }
  }
  attr {
    key: "dtype"
    value {
      type: DT_FLOAT
    }
  }
}
node {
  name: "resnet_model/batch_normalization_2/moving_variance/Initializer/ones"
  op: "Const"
  attr {
    key: "_class"
    value {
      list {
        s: "loc:@resnet_model/batch_normalization_2/moving_variance"
      }
    }
  }
  attr {
    key: "_output_shapes"
    value {
      list {
        shape {
          dim {
            size: 16
          }
        }
      }
    }
  }
  attr {
    key: "dtype"
    value {
      type: DT_FLOAT
    }
  }
  attr {
    key: "value"
    value {
      tensor {
        dtype: DT_FLOAT
        tensor_shape {
          dim {
            size: 16
          }
        }
        float_val: 1.0
      }
    }
  }
}
node {
  name: "resnet_model/batch_normalization_2/moving_variance"
  op: "VarHandleOp"
  device: "/device:GPU:0"
  attr {
    key: "_class"
    value {
      list {
        s: "loc:@resnet_model/batch_normalization_2/moving_variance"
      }
    }
  }
  attr {
    key: "_output_shapes"
    value {
      list {
        shape {
        }
      }
    }
  }
  attr {
    key: "container"
    value {
      s: ""
    }
  }
  attr {
    key: "dtype"
    value {
      type: DT_FLOAT
    }
  }
  attr {
    key: "shape"
    value {
      shape {
        dim {
          size: 16
        }
      }
    }
  }
  attr {
    key: "shared_name"
    value {
      s: "resnet_model/batch_normalization_2/moving_variance"
    }
  }
}
node {
  name: "resnet_model/batch_normalization_2/moving_variance/IsInitialized/VarIsInitializedOp"
  op: "VarIsInitializedOp"
  input: "resnet_model/batch_normalization_2/moving_variance"
  device: "/device:GPU:0"
  attr {
    key: "_output_shapes"
    value {
      list {
        shape {
        }
      }
    }
  }
}
node {
  name: "resnet_model/batch_normalization_2/moving_variance/Assign"
  op: "AssignVariableOp"
  input: "resnet_model/batch_normalization_2/moving_variance"
  input: "resnet_model/batch_normalization_2/moving_variance/Initializer/ones"
  device: "/device:GPU:0"
  attr {
    key: "_class"
    value {
      list {
        s: "loc:@resnet_model/batch_normalization_2/moving_variance"
      }
    }
  }
  attr {
    key: "dtype"
    value {
      type: DT_FLOAT
    }
  }
}
node {
  name: "resnet_model/batch_normalization_2/moving_variance/Read/ReadVariableOp"
  op: "ReadVariableOp"
  input: "resnet_model/batch_normalization_2/moving_variance"
  device: "/device:GPU:0"
  attr {
    key: "_class"
    value {
      list {
        s: "loc:@resnet_model/batch_normalization_2/moving_variance"
      }
    }
  }
  attr {
    key: "_output_shapes"
    value {
      list {
        shape {
          dim {
            size: 16
          }
        }
      }
    }
  }
  attr {
    key: "dtype"
    value {
      type: DT_FLOAT
    }
  }
}
node {
  name: "resnet_model/batch_normalization_2/ReadVariableOp"
  op: "ReadVariableOp"
  input: "resnet_model/batch_normalization_2/gamma"
  device: "/device:GPU:0"
  attr {
    key: "_output_shapes"
    value {
      list {
        shape {
          dim {
            size: 16
          }
        }
      }
    }
  }
  attr {
    key: "dtype"
    value {
      type: DT_FLOAT
    }
  }
}
node {
  name: "resnet_model/batch_normalization_2/ReadVariableOp_1"
  op: "ReadVariableOp"
  input: "resnet_model/batch_normalization_2/beta"
  device: "/device:GPU:0"
  attr {
    key: "_output_shapes"
    value {
      list {
        shape {
          dim {
            size: 16
          }
        }
      }
    }
  }
  attr {
    key: "dtype"
    value {
      type: DT_FLOAT
    }
  }
}
node {
  name: "resnet_model/batch_normalization_2/Const"
  op: "Const"
  device: "/device:GPU:0"
  attr {
    key: "_output_shapes"
    value {
      list {
        shape {
          dim {
          }
        }
      }
    }
  }
  attr {
    key: "dtype"
    value {
      type: DT_FLOAT
    }
  }
  attr {
    key: "value"
    value {
      tensor {
        dtype: DT_FLOAT
        tensor_shape {
          dim {
          }
        }
      }
    }
  }
}
node {
  name: "resnet_model/batch_normalization_2/Const_1"
  op: "Const"
  device: "/device:GPU:0"
  attr {
    key: "_output_shapes"
    value {
      list {
        shape {
          dim {
          }
        }
      }
    }
  }
  attr {
    key: "dtype"
    value {
      type: DT_FLOAT
    }
  }
  attr {
    key: "value"
    value {
      tensor {
        dtype: DT_FLOAT
        tensor_shape {
          dim {
          }
        }
      }
    }
  }
}
node {
  name: "resnet_model/batch_normalization_2/FusedBatchNorm"
  op: "FusedBatchNorm"
  input: "resnet_model/conv2d_2/Conv2D"
  input: "resnet_model/batch_normalization_2/ReadVariableOp"
  input: "resnet_model/batch_normalization_2/ReadVariableOp_1"
  input: "resnet_model/batch_normalization_2/Const"
  input: "resnet_model/batch_normalization_2/Const_1"
  device: "/device:GPU:0"
  attr {
    key: "T"
    value {
      type: DT_FLOAT
    }
  }
  attr {
    key: "_output_shapes"
    value {
      list {
        shape {
          dim {
            size: -1
          }
          dim {
            size: 32
          }
          dim {
            size: 32
          }
          dim {
            size: 16
          }
        }
        shape {
          dim {
            size: 16
          }
        }
        shape {
          dim {
            size: 16
          }
        }
        shape {
          dim {
            size: 16
          }
        }
        shape {
          dim {
            size: 16
          }
        }
      }
    }
  }
  attr {
    key: "data_format"
    value {
      s: "NHWC"
    }
  }
  attr {
    key: "epsilon"
    value {
      f: 1.00099996416e-05
    }
  }
  attr {
    key: "is_training"
    value {
      b: true
    }
  }
}
node {
  name: "resnet_model/batch_normalization_2/Const_2"
  op: "Const"
  device: "/device:GPU:0"
  attr {
    key: "_output_shapes"
    value {
      list {
        shape {
        }
      }
    }
  }
  attr {
    key: "dtype"
    value {
      type: DT_FLOAT
    }
  }
  attr {
    key: "value"
    value {
      tensor {
        dtype: DT_FLOAT
        tensor_shape {
        }
        float_val: 0.996999979019
      }
    }
  }
}
node {
  name: "resnet_model/batch_normalization_2/AssignMovingAvg/Read/ReadVariableOp"
  op: "ReadVariableOp"
  input: "resnet_model/batch_normalization_2/moving_mean"
  device: "/device:GPU:0"
  attr {
    key: "_output_shapes"
    value {
      list {
        shape {
          dim {
            size: 16
          }
        }
      }
    }
  }
  attr {
    key: "dtype"
    value {
      type: DT_FLOAT
    }
  }
}
node {
  name: "resnet_model/batch_normalization_2/AssignMovingAvg/Identity"
  op: "Identity"
  input: "resnet_model/batch_normalization_2/AssignMovingAvg/Read/ReadVariableOp"
  device: "/device:GPU:0"
  attr {
    key: "T"
    value {
      type: DT_FLOAT
    }
  }
  attr {
    key: "_output_shapes"
    value {
      list {
        shape {
          dim {
            size: 16
          }
        }
      }
    }
  }
}
node {
  name: "resnet_model/batch_normalization_2/AssignMovingAvg/sub/x"
  op: "Const"
  device: "/device:GPU:0"
  attr {
    key: "_class"
    value {
      list {
        s: "loc:@resnet_model/batch_normalization_2/AssignMovingAvg/Read/ReadVariableOp"
      }
    }
  }
  attr {
    key: "_output_shapes"
    value {
      list {
        shape {
        }
      }
    }
  }
  attr {
    key: "dtype"
    value {
      type: DT_FLOAT
    }
  }
  attr {
    key: "value"
    value {
      tensor {
        dtype: DT_FLOAT
        tensor_shape {
        }
        float_val: 1.0
      }
    }
  }
}
node {
  name: "resnet_model/batch_normalization_2/AssignMovingAvg/sub"
  op: "Sub"
  input: "resnet_model/batch_normalization_2/AssignMovingAvg/sub/x"
  input: "resnet_model/batch_normalization_2/Const_2"
  device: "/device:GPU:0"
  attr {
    key: "T"
    value {
      type: DT_FLOAT
    }
  }
  attr {
    key: "_class"
    value {
      list {
        s: "loc:@resnet_model/batch_normalization_2/AssignMovingAvg/Read/ReadVariableOp"
      }
    }
  }
  attr {
    key: "_output_shapes"
    value {
      list {
        shape {
        }
      }
    }
  }
}
node {
  name: "resnet_model/batch_normalization_2/AssignMovingAvg/ReadVariableOp"
  op: "ReadVariableOp"
  input: "resnet_model/batch_normalization_2/moving_mean"
  device: "/device:GPU:0"
  attr {
    key: "_output_shapes"
    value {
      list {
        shape {
          dim {
            size: 16
          }
        }
      }
    }
  }
  attr {
    key: "dtype"
    value {
      type: DT_FLOAT
    }
  }
}
node {
  name: "resnet_model/batch_normalization_2/AssignMovingAvg/sub_1"
  op: "Sub"
  input: "resnet_model/batch_normalization_2/AssignMovingAvg/ReadVariableOp"
  input: "resnet_model/batch_normalization_2/FusedBatchNorm:1"
  device: "/device:GPU:0"
  attr {
    key: "T"
    value {
      type: DT_FLOAT
    }
  }
  attr {
    key: "_class"
    value {
      list {
        s: "loc:@resnet_model/batch_normalization_2/AssignMovingAvg/Read/ReadVariableOp"
      }
    }
  }
  attr {
    key: "_output_shapes"
    value {
      list {
        shape {
          dim {
            size: 16
          }
        }
      }
    }
  }
}
node {
  name: "resnet_model/batch_normalization_2/AssignMovingAvg/mul"
  op: "Mul"
  input: "resnet_model/batch_normalization_2/AssignMovingAvg/sub_1"
  input: "resnet_model/batch_normalization_2/AssignMovingAvg/sub"
  device: "/device:GPU:0"
  attr {
    key: "T"
    value {
      type: DT_FLOAT
    }
  }
  attr {
    key: "_class"
    value {
      list {
        s: "loc:@resnet_model/batch_normalization_2/AssignMovingAvg/Read/ReadVariableOp"
      }
    }
  }
  attr {
    key: "_output_shapes"
    value {
      list {
        shape {
          dim {
            size: 16
          }
        }
      }
    }
  }
}
node {
  name: "resnet_model/batch_normalization_2/AssignMovingAvg/AssignSubVariableOp"
  op: "AssignSubVariableOp"
  input: "resnet_model/batch_normalization_2/moving_mean"
  input: "resnet_model/batch_normalization_2/AssignMovingAvg/mul"
  device: "/device:GPU:0"
  attr {
    key: "_class"
    value {
      list {
        s: "loc:@resnet_model/batch_normalization_2/AssignMovingAvg/Read/ReadVariableOp"
      }
    }
  }
  attr {
    key: "dtype"
    value {
      type: DT_FLOAT
    }
  }
}
node {
  name: "resnet_model/batch_normalization_2/AssignMovingAvg/ReadVariableOp_1"
  op: "ReadVariableOp"
  input: "resnet_model/batch_normalization_2/moving_mean"
  input: "^resnet_model/batch_normalization_2/AssignMovingAvg/AssignSubVariableOp"
  device: "/device:GPU:0"
  attr {
    key: "_class"
    value {
      list {
        s: "loc:@resnet_model/batch_normalization_2/AssignMovingAvg/Read/ReadVariableOp"
      }
    }
  }
  attr {
    key: "_output_shapes"
    value {
      list {
        shape {
          dim {
            size: 16
          }
        }
      }
    }
  }
  attr {
    key: "dtype"
    value {
      type: DT_FLOAT
    }
  }
}
node {
  name: "resnet_model/batch_normalization_2/AssignMovingAvg_1/Read/ReadVariableOp"
  op: "ReadVariableOp"
  input: "resnet_model/batch_normalization_2/moving_variance"
  device: "/device:GPU:0"
  attr {
    key: "_output_shapes"
    value {
      list {
        shape {
          dim {
            size: 16
          }
        }
      }
    }
  }
  attr {
    key: "dtype"
    value {
      type: DT_FLOAT
    }
  }
}
node {
  name: "resnet_model/batch_normalization_2/AssignMovingAvg_1/Identity"
  op: "Identity"
  input: "resnet_model/batch_normalization_2/AssignMovingAvg_1/Read/ReadVariableOp"
  device: "/device:GPU:0"
  attr {
    key: "T"
    value {
      type: DT_FLOAT
    }
  }
  attr {
    key: "_output_shapes"
    value {
      list {
        shape {
          dim {
            size: 16
          }
        }
      }
    }
  }
}
node {
  name: "resnet_model/batch_normalization_2/AssignMovingAvg_1/sub/x"
  op: "Const"
  device: "/device:GPU:0"
  attr {
    key: "_class"
    value {
      list {
        s: "loc:@resnet_model/batch_normalization_2/AssignMovingAvg_1/Read/ReadVariableOp"
      }
    }
  }
  attr {
    key: "_output_shapes"
    value {
      list {
        shape {
        }
      }
    }
  }
  attr {
    key: "dtype"
    value {
      type: DT_FLOAT
    }
  }
  attr {
    key: "value"
    value {
      tensor {
        dtype: DT_FLOAT
        tensor_shape {
        }
        float_val: 1.0
      }
    }
  }
}
node {
  name: "resnet_model/batch_normalization_2/AssignMovingAvg_1/sub"
  op: "Sub"
  input: "resnet_model/batch_normalization_2/AssignMovingAvg_1/sub/x"
  input: "resnet_model/batch_normalization_2/Const_2"
  device: "/device:GPU:0"
  attr {
    key: "T"
    value {
      type: DT_FLOAT
    }
  }
  attr {
    key: "_class"
    value {
      list {
        s: "loc:@resnet_model/batch_normalization_2/AssignMovingAvg_1/Read/ReadVariableOp"
      }
    }
  }
  attr {
    key: "_output_shapes"
    value {
      list {
        shape {
        }
      }
    }
  }
}
node {
  name: "resnet_model/batch_normalization_2/AssignMovingAvg_1/ReadVariableOp"
  op: "ReadVariableOp"
  input: "resnet_model/batch_normalization_2/moving_variance"
  device: "/device:GPU:0"
  attr {
    key: "_output_shapes"
    value {
      list {
        shape {
          dim {
            size: 16
          }
        }
      }
    }
  }
  attr {
    key: "dtype"
    value {
      type: DT_FLOAT
    }
  }
}
node {
  name: "resnet_model/batch_normalization_2/AssignMovingAvg_1/sub_1"
  op: "Sub"
  input: "resnet_model/batch_normalization_2/AssignMovingAvg_1/ReadVariableOp"
  input: "resnet_model/batch_normalization_2/FusedBatchNorm:2"
  device: "/device:GPU:0"
  attr {
    key: "T"
    value {
      type: DT_FLOAT
    }
  }
  attr {
    key: "_class"
    value {
      list {
        s: "loc:@resnet_model/batch_normalization_2/AssignMovingAvg_1/Read/ReadVariableOp"
      }
    }
  }
  attr {
    key: "_output_shapes"
    value {
      list {
        shape {
          dim {
            size: 16
          }
        }
      }
    }
  }
}
node {
  name: "resnet_model/batch_normalization_2/AssignMovingAvg_1/mul"
  op: "Mul"
  input: "resnet_model/batch_normalization_2/AssignMovingAvg_1/sub_1"
  input: "resnet_model/batch_normalization_2/AssignMovingAvg_1/sub"
  device: "/device:GPU:0"
  attr {
    key: "T"
    value {
      type: DT_FLOAT
    }
  }
  attr {
    key: "_class"
    value {
      list {
        s: "loc:@resnet_model/batch_normalization_2/AssignMovingAvg_1/Read/ReadVariableOp"
      }
    }
  }
  attr {
    key: "_output_shapes"
    value {
      list {
        shape {
          dim {
            size: 16
          }
        }
      }
    }
  }
}
node {
  name: "resnet_model/batch_normalization_2/AssignMovingAvg_1/AssignSubVariableOp"
  op: "AssignSubVariableOp"
  input: "resnet_model/batch_normalization_2/moving_variance"
  input: "resnet_model/batch_normalization_2/AssignMovingAvg_1/mul"
  device: "/device:GPU:0"
  attr {
    key: "_class"
    value {
      list {
        s: "loc:@resnet_model/batch_normalization_2/AssignMovingAvg_1/Read/ReadVariableOp"
      }
    }
  }
  attr {
    key: "dtype"
    value {
      type: DT_FLOAT
    }
  }
}
node {
  name: "resnet_model/batch_normalization_2/AssignMovingAvg_1/ReadVariableOp_1"
  op: "ReadVariableOp"
  input: "resnet_model/batch_normalization_2/moving_variance"
  input: "^resnet_model/batch_normalization_2/AssignMovingAvg_1/AssignSubVariableOp"
  device: "/device:GPU:0"
  attr {
    key: "_class"
    value {
      list {
        s: "loc:@resnet_model/batch_normalization_2/AssignMovingAvg_1/Read/ReadVariableOp"
      }
    }
  }
  attr {
    key: "_output_shapes"
    value {
      list {
        shape {
          dim {
            size: 16
          }
        }
      }
    }
  }
  attr {
    key: "dtype"
    value {
      type: DT_FLOAT
    }
  }
}
node {
  name: "resnet_model/Relu_1"
  op: "Relu"
  input: "resnet_model/batch_normalization_2/FusedBatchNorm"
  device: "/device:GPU:0"
  attr {
    key: "T"
    value {
      type: DT_FLOAT
    }
  }
  attr {
    key: "_output_shapes"
    value {
      list {
        shape {
          dim {
            size: -1
          }
          dim {
            size: 32
          }
          dim {
            size: 32
          }
          dim {
            size: 16
          }
        }
      }
    }
  }
}
node {
  name: "resnet_model/conv2d_3/kernel/Initializer/truncated_normal/shape"
  op: "Const"
  attr {
    key: "_class"
    value {
      list {
        s: "loc:@resnet_model/conv2d_3/kernel"
      }
    }
  }
  attr {
    key: "_output_shapes"
    value {
      list {
        shape {
          dim {
            size: 4
          }
        }
      }
    }
  }
  attr {
    key: "dtype"
    value {
      type: DT_INT32
    }
  }
  attr {
    key: "value"
    value {
      tensor {
        dtype: DT_INT32
        tensor_shape {
          dim {
            size: 4
          }
        }
        tensor_content: "\003\000\000\000\003\000\000\000\020\000\000\000\020\000\000\000"
      }
    }
  }
}
node {
  name: "resnet_model/conv2d_3/kernel/Initializer/truncated_normal/mean"
  op: "Const"
  attr {
    key: "_class"
    value {
      list {
        s: "loc:@resnet_model/conv2d_3/kernel"
      }
    }
  }
  attr {
    key: "_output_shapes"
    value {
      list {
        shape {
        }
      }
    }
  }
  attr {
    key: "dtype"
    value {
      type: DT_FLOAT
    }
  }
  attr {
    key: "value"
    value {
      tensor {
        dtype: DT_FLOAT
        tensor_shape {
        }
        float_val: 0.0
      }
    }
  }
}
node {
  name: "resnet_model/conv2d_3/kernel/Initializer/truncated_normal/stddev"
  op: "Const"
  attr {
    key: "_class"
    value {
      list {
        s: "loc:@resnet_model/conv2d_3/kernel"
      }
    }
  }
  attr {
    key: "_output_shapes"
    value {
      list {
        shape {
        }
      }
    }
  }
  attr {
    key: "dtype"
    value {
      type: DT_FLOAT
    }
  }
  attr {
    key: "value"
    value {
      tensor {
        dtype: DT_FLOAT
        tensor_shape {
        }
        float_val: 0.0947372689843
      }
    }
  }
}
node {
  name: "resnet_model/conv2d_3/kernel/Initializer/truncated_normal/TruncatedNormal"
  op: "TruncatedNormal"
  input: "resnet_model/conv2d_3/kernel/Initializer/truncated_normal/shape"
  attr {
    key: "T"
    value {
      type: DT_INT32
    }
  }
  attr {
    key: "_class"
    value {
      list {
        s: "loc:@resnet_model/conv2d_3/kernel"
      }
    }
  }
  attr {
    key: "_output_shapes"
    value {
      list {
        shape {
          dim {
            size: 3
          }
          dim {
            size: 3
          }
          dim {
            size: 16
          }
          dim {
            size: 16
          }
        }
      }
    }
  }
  attr {
    key: "dtype"
    value {
      type: DT_FLOAT
    }
  }
  attr {
    key: "seed"
    value {
      i: 0
    }
  }
  attr {
    key: "seed2"
    value {
      i: 0
    }
  }
}
node {
  name: "resnet_model/conv2d_3/kernel/Initializer/truncated_normal/mul"
  op: "Mul"
  input: "resnet_model/conv2d_3/kernel/Initializer/truncated_normal/TruncatedNormal"
  input: "resnet_model/conv2d_3/kernel/Initializer/truncated_normal/stddev"
  attr {
    key: "T"
    value {
      type: DT_FLOAT
    }
  }
  attr {
    key: "_class"
    value {
      list {
        s: "loc:@resnet_model/conv2d_3/kernel"
      }
    }
  }
  attr {
    key: "_output_shapes"
    value {
      list {
        shape {
          dim {
            size: 3
          }
          dim {
            size: 3
          }
          dim {
            size: 16
          }
          dim {
            size: 16
          }
        }
      }
    }
  }
}
node {
  name: "resnet_model/conv2d_3/kernel/Initializer/truncated_normal"
  op: "Add"
  input: "resnet_model/conv2d_3/kernel/Initializer/truncated_normal/mul"
  input: "resnet_model/conv2d_3/kernel/Initializer/truncated_normal/mean"
  attr {
    key: "T"
    value {
      type: DT_FLOAT
    }
  }
  attr {
    key: "_class"
    value {
      list {
        s: "loc:@resnet_model/conv2d_3/kernel"
      }
    }
  }
  attr {
    key: "_output_shapes"
    value {
      list {
        shape {
          dim {
            size: 3
          }
          dim {
            size: 3
          }
          dim {
            size: 16
          }
          dim {
            size: 16
          }
        }
      }
    }
  }
}
node {
  name: "resnet_model/conv2d_3/kernel"
  op: "VarHandleOp"
  device: "/device:GPU:0"
  attr {
    key: "_class"
    value {
      list {
        s: "loc:@resnet_model/conv2d_3/kernel"
      }
    }
  }
  attr {
    key: "_output_shapes"
    value {
      list {
        shape {
        }
      }
    }
  }
  attr {
    key: "container"
    value {
      s: ""
    }
  }
  attr {
    key: "dtype"
    value {
      type: DT_FLOAT
    }
  }
  attr {
    key: "shape"
    value {
      shape {
        dim {
          size: 3
        }
        dim {
          size: 3
        }
        dim {
          size: 16
        }
        dim {
          size: 16
        }
      }
    }
  }
  attr {
    key: "shared_name"
    value {
      s: "resnet_model/conv2d_3/kernel"
    }
  }
}
node {
  name: "resnet_model/conv2d_3/kernel/IsInitialized/VarIsInitializedOp"
  op: "VarIsInitializedOp"
  input: "resnet_model/conv2d_3/kernel"
  device: "/device:GPU:0"
  attr {
    key: "_output_shapes"
    value {
      list {
        shape {
        }
      }
    }
  }
}
node {
  name: "resnet_model/conv2d_3/kernel/Assign"
  op: "AssignVariableOp"
  input: "resnet_model/conv2d_3/kernel"
  input: "resnet_model/conv2d_3/kernel/Initializer/truncated_normal"
  device: "/device:GPU:0"
  attr {
    key: "_class"
    value {
      list {
        s: "loc:@resnet_model/conv2d_3/kernel"
      }
    }
  }
  attr {
    key: "dtype"
    value {
      type: DT_FLOAT
    }
  }
}
node {
  name: "resnet_model/conv2d_3/kernel/Read/ReadVariableOp"
  op: "ReadVariableOp"
  input: "resnet_model/conv2d_3/kernel"
  device: "/device:GPU:0"
  attr {
    key: "_class"
    value {
      list {
        s: "loc:@resnet_model/conv2d_3/kernel"
      }
    }
  }
  attr {
    key: "_output_shapes"
    value {
      list {
        shape {
          dim {
            size: 3
          }
          dim {
            size: 3
          }
          dim {
            size: 16
          }
          dim {
            size: 16
          }
        }
      }
    }
  }
  attr {
    key: "dtype"
    value {
      type: DT_FLOAT
    }
  }
}
node {
  name: "resnet_model/conv2d_3/dilation_rate"
  op: "Const"
  device: "/device:GPU:0"
  attr {
    key: "_output_shapes"
    value {
      list {
        shape {
          dim {
            size: 2
          }
        }
      }
    }
  }
  attr {
    key: "dtype"
    value {
      type: DT_INT32
    }
  }
  attr {
    key: "value"
    value {
      tensor {
        dtype: DT_INT32
        tensor_shape {
          dim {
            size: 2
          }
        }
        tensor_content: "\001\000\000\000\001\000\000\000"
      }
    }
  }
}
node {
  name: "resnet_model/conv2d_3/Conv2D/ReadVariableOp"
  op: "ReadVariableOp"
  input: "resnet_model/conv2d_3/kernel"
  device: "/device:GPU:0"
  attr {
    key: "_output_shapes"
    value {
      list {
        shape {
          dim {
            size: 3
          }
          dim {
            size: 3
          }
          dim {
            size: 16
          }
          dim {
            size: 16
          }
        }
      }
    }
  }
  attr {
    key: "dtype"
    value {
      type: DT_FLOAT
    }
  }
}
node {
  name: "resnet_model/conv2d_3/Conv2D"
  op: "Conv2D"
  input: "resnet_model/Relu_1"
  input: "resnet_model/conv2d_3/Conv2D/ReadVariableOp"
  device: "/device:GPU:0"
  attr {
    key: "T"
    value {
      type: DT_FLOAT
    }
  }
  attr {
    key: "_output_shapes"
    value {
      list {
        shape {
          dim {
            size: -1
          }
          dim {
            size: 32
          }
          dim {
            size: 32
          }
          dim {
            size: 16
          }
        }
      }
    }
  }
  attr {
    key: "data_format"
    value {
      s: "NHWC"
    }
  }
  attr {
    key: "dilations"
    value {
      list {
        i: 1
        i: 1
        i: 1
        i: 1
      }
    }
  }
  attr {
    key: "padding"
    value {
      s: "SAME"
    }
  }
  attr {
    key: "strides"
    value {
      list {
        i: 1
        i: 1
        i: 1
        i: 1
      }
    }
  }
  attr {
    key: "use_cudnn_on_gpu"
    value {
      b: true
    }
  }
}
node {
  name: "resnet_model/batch_normalization_3/gamma/Initializer/ones"
  op: "Const"
  attr {
    key: "_class"
    value {
      list {
        s: "loc:@resnet_model/batch_normalization_3/gamma"
      }
    }
  }
  attr {
    key: "_output_shapes"
    value {
      list {
        shape {
          dim {
            size: 16
          }
        }
      }
    }
  }
  attr {
    key: "dtype"
    value {
      type: DT_FLOAT
    }
  }
  attr {
    key: "value"
    value {
      tensor {
        dtype: DT_FLOAT
        tensor_shape {
          dim {
            size: 16
          }
        }
        float_val: 1.0
      }
    }
  }
}
node {
  name: "resnet_model/batch_normalization_3/gamma"
  op: "VarHandleOp"
  device: "/device:GPU:0"
  attr {
    key: "_class"
    value {
      list {
        s: "loc:@resnet_model/batch_normalization_3/gamma"
      }
    }
  }
  attr {
    key: "_output_shapes"
    value {
      list {
        shape {
        }
      }
    }
  }
  attr {
    key: "container"
    value {
      s: ""
    }
  }
  attr {
    key: "dtype"
    value {
      type: DT_FLOAT
    }
  }
  attr {
    key: "shape"
    value {
      shape {
        dim {
          size: 16
        }
      }
    }
  }
  attr {
    key: "shared_name"
    value {
      s: "resnet_model/batch_normalization_3/gamma"
    }
  }
}
node {
  name: "resnet_model/batch_normalization_3/gamma/IsInitialized/VarIsInitializedOp"
  op: "VarIsInitializedOp"
  input: "resnet_model/batch_normalization_3/gamma"
  device: "/device:GPU:0"
  attr {
    key: "_output_shapes"
    value {
      list {
        shape {
        }
      }
    }
  }
}
node {
  name: "resnet_model/batch_normalization_3/gamma/Assign"
  op: "AssignVariableOp"
  input: "resnet_model/batch_normalization_3/gamma"
  input: "resnet_model/batch_normalization_3/gamma/Initializer/ones"
  device: "/device:GPU:0"
  attr {
    key: "_class"
    value {
      list {
        s: "loc:@resnet_model/batch_normalization_3/gamma"
      }
    }
  }
  attr {
    key: "dtype"
    value {
      type: DT_FLOAT
    }
  }
}
node {
  name: "resnet_model/batch_normalization_3/gamma/Read/ReadVariableOp"
  op: "ReadVariableOp"
  input: "resnet_model/batch_normalization_3/gamma"
  device: "/device:GPU:0"
  attr {
    key: "_class"
    value {
      list {
        s: "loc:@resnet_model/batch_normalization_3/gamma"
      }
    }
  }
  attr {
    key: "_output_shapes"
    value {
      list {
        shape {
          dim {
            size: 16
          }
        }
      }
    }
  }
  attr {
    key: "dtype"
    value {
      type: DT_FLOAT
    }
  }
}
node {
  name: "resnet_model/batch_normalization_3/beta/Initializer/zeros"
  op: "Const"
  attr {
    key: "_class"
    value {
      list {
        s: "loc:@resnet_model/batch_normalization_3/beta"
      }
    }
  }
  attr {
    key: "_output_shapes"
    value {
      list {
        shape {
          dim {
            size: 16
          }
        }
      }
    }
  }
  attr {
    key: "dtype"
    value {
      type: DT_FLOAT
    }
  }
  attr {
    key: "value"
    value {
      tensor {
        dtype: DT_FLOAT
        tensor_shape {
          dim {
            size: 16
          }
        }
        float_val: 0.0
      }
    }
  }
}
node {
  name: "resnet_model/batch_normalization_3/beta"
  op: "VarHandleOp"
  device: "/device:GPU:0"
  attr {
    key: "_class"
    value {
      list {
        s: "loc:@resnet_model/batch_normalization_3/beta"
      }
    }
  }
  attr {
    key: "_output_shapes"
    value {
      list {
        shape {
        }
      }
    }
  }
  attr {
    key: "container"
    value {
      s: ""
    }
  }
  attr {
    key: "dtype"
    value {
      type: DT_FLOAT
    }
  }
  attr {
    key: "shape"
    value {
      shape {
        dim {
          size: 16
        }
      }
    }
  }
  attr {
    key: "shared_name"
    value {
      s: "resnet_model/batch_normalization_3/beta"
    }
  }
}
node {
  name: "resnet_model/batch_normalization_3/beta/IsInitialized/VarIsInitializedOp"
  op: "VarIsInitializedOp"
  input: "resnet_model/batch_normalization_3/beta"
  device: "/device:GPU:0"
  attr {
    key: "_output_shapes"
    value {
      list {
        shape {
        }
      }
    }
  }
}
node {
  name: "resnet_model/batch_normalization_3/beta/Assign"
  op: "AssignVariableOp"
  input: "resnet_model/batch_normalization_3/beta"
  input: "resnet_model/batch_normalization_3/beta/Initializer/zeros"
  device: "/device:GPU:0"
  attr {
    key: "_class"
    value {
      list {
        s: "loc:@resnet_model/batch_normalization_3/beta"
      }
    }
  }
  attr {
    key: "dtype"
    value {
      type: DT_FLOAT
    }
  }
}
node {
  name: "resnet_model/batch_normalization_3/beta/Read/ReadVariableOp"
  op: "ReadVariableOp"
  input: "resnet_model/batch_normalization_3/beta"
  device: "/device:GPU:0"
  attr {
    key: "_class"
    value {
      list {
        s: "loc:@resnet_model/batch_normalization_3/beta"
      }
    }
  }
  attr {
    key: "_output_shapes"
    value {
      list {
        shape {
          dim {
            size: 16
          }
        }
      }
    }
  }
  attr {
    key: "dtype"
    value {
      type: DT_FLOAT
    }
  }
}
node {
  name: "resnet_model/batch_normalization_3/moving_mean/Initializer/zeros"
  op: "Const"
  attr {
    key: "_class"
    value {
      list {
        s: "loc:@resnet_model/batch_normalization_3/moving_mean"
      }
    }
  }
  attr {
    key: "_output_shapes"
    value {
      list {
        shape {
          dim {
            size: 16
          }
        }
      }
    }
  }
  attr {
    key: "dtype"
    value {
      type: DT_FLOAT
    }
  }
  attr {
    key: "value"
    value {
      tensor {
        dtype: DT_FLOAT
        tensor_shape {
          dim {
            size: 16
          }
        }
        float_val: 0.0
      }
    }
  }
}
node {
  name: "resnet_model/batch_normalization_3/moving_mean"
  op: "VarHandleOp"
  device: "/device:GPU:0"
  attr {
    key: "_class"
    value {
      list {
        s: "loc:@resnet_model/batch_normalization_3/moving_mean"
      }
    }
  }
  attr {
    key: "_output_shapes"
    value {
      list {
        shape {
        }
      }
    }
  }
  attr {
    key: "container"
    value {
      s: ""
    }
  }
  attr {
    key: "dtype"
    value {
      type: DT_FLOAT
    }
  }
  attr {
    key: "shape"
    value {
      shape {
        dim {
          size: 16
        }
      }
    }
  }
  attr {
    key: "shared_name"
    value {
      s: "resnet_model/batch_normalization_3/moving_mean"
    }
  }
}
node {
  name: "resnet_model/batch_normalization_3/moving_mean/IsInitialized/VarIsInitializedOp"
  op: "VarIsInitializedOp"
  input: "resnet_model/batch_normalization_3/moving_mean"
  device: "/device:GPU:0"
  attr {
    key: "_output_shapes"
    value {
      list {
        shape {
        }
      }
    }
  }
}
node {
  name: "resnet_model/batch_normalization_3/moving_mean/Assign"
  op: "AssignVariableOp"
  input: "resnet_model/batch_normalization_3/moving_mean"
  input: "resnet_model/batch_normalization_3/moving_mean/Initializer/zeros"
  device: "/device:GPU:0"
  attr {
    key: "_class"
    value {
      list {
        s: "loc:@resnet_model/batch_normalization_3/moving_mean"
      }
    }
  }
  attr {
    key: "dtype"
    value {
      type: DT_FLOAT
    }
  }
}
node {
  name: "resnet_model/batch_normalization_3/moving_mean/Read/ReadVariableOp"
  op: "ReadVariableOp"
  input: "resnet_model/batch_normalization_3/moving_mean"
  device: "/device:GPU:0"
  attr {
    key: "_class"
    value {
      list {
        s: "loc:@resnet_model/batch_normalization_3/moving_mean"
      }
    }
  }
  attr {
    key: "_output_shapes"
    value {
      list {
        shape {
          dim {
            size: 16
          }
        }
      }
    }
  }
  attr {
    key: "dtype"
    value {
      type: DT_FLOAT
    }
  }
}
node {
  name: "resnet_model/batch_normalization_3/moving_variance/Initializer/ones"
  op: "Const"
  attr {
    key: "_class"
    value {
      list {
        s: "loc:@resnet_model/batch_normalization_3/moving_variance"
      }
    }
  }
  attr {
    key: "_output_shapes"
    value {
      list {
        shape {
          dim {
            size: 16
          }
        }
      }
    }
  }
  attr {
    key: "dtype"
    value {
      type: DT_FLOAT
    }
  }
  attr {
    key: "value"
    value {
      tensor {
        dtype: DT_FLOAT
        tensor_shape {
          dim {
            size: 16
          }
        }
        float_val: 1.0
      }
    }
  }
}
node {
  name: "resnet_model/batch_normalization_3/moving_variance"
  op: "VarHandleOp"
  device: "/device:GPU:0"
  attr {
    key: "_class"
    value {
      list {
        s: "loc:@resnet_model/batch_normalization_3/moving_variance"
      }
    }
  }
  attr {
    key: "_output_shapes"
    value {
      list {
        shape {
        }
      }
    }
  }
  attr {
    key: "container"
    value {
      s: ""
    }
  }
  attr {
    key: "dtype"
    value {
      type: DT_FLOAT
    }
  }
  attr {
    key: "shape"
    value {
      shape {
        dim {
          size: 16
        }
      }
    }
  }
  attr {
    key: "shared_name"
    value {
      s: "resnet_model/batch_normalization_3/moving_variance"
    }
  }
}
node {
  name: "resnet_model/batch_normalization_3/moving_variance/IsInitialized/VarIsInitializedOp"
  op: "VarIsInitializedOp"
  input: "resnet_model/batch_normalization_3/moving_variance"
  device: "/device:GPU:0"
  attr {
    key: "_output_shapes"
    value {
      list {
        shape {
        }
      }
    }
  }
}
node {
  name: "resnet_model/batch_normalization_3/moving_variance/Assign"
  op: "AssignVariableOp"
  input: "resnet_model/batch_normalization_3/moving_variance"
  input: "resnet_model/batch_normalization_3/moving_variance/Initializer/ones"
  device: "/device:GPU:0"
  attr {
    key: "_class"
    value {
      list {
        s: "loc:@resnet_model/batch_normalization_3/moving_variance"
      }
    }
  }
  attr {
    key: "dtype"
    value {
      type: DT_FLOAT
    }
  }
}
node {
  name: "resnet_model/batch_normalization_3/moving_variance/Read/ReadVariableOp"
  op: "ReadVariableOp"
  input: "resnet_model/batch_normalization_3/moving_variance"
  device: "/device:GPU:0"
  attr {
    key: "_class"
    value {
      list {
        s: "loc:@resnet_model/batch_normalization_3/moving_variance"
      }
    }
  }
  attr {
    key: "_output_shapes"
    value {
      list {
        shape {
          dim {
            size: 16
          }
        }
      }
    }
  }
  attr {
    key: "dtype"
    value {
      type: DT_FLOAT
    }
  }
}
node {
  name: "resnet_model/batch_normalization_3/ReadVariableOp"
  op: "ReadVariableOp"
  input: "resnet_model/batch_normalization_3/gamma"
  device: "/device:GPU:0"
  attr {
    key: "_output_shapes"
    value {
      list {
        shape {
          dim {
            size: 16
          }
        }
      }
    }
  }
  attr {
    key: "dtype"
    value {
      type: DT_FLOAT
    }
  }
}
node {
  name: "resnet_model/batch_normalization_3/ReadVariableOp_1"
  op: "ReadVariableOp"
  input: "resnet_model/batch_normalization_3/beta"
  device: "/device:GPU:0"
  attr {
    key: "_output_shapes"
    value {
      list {
        shape {
          dim {
            size: 16
          }
        }
      }
    }
  }
  attr {
    key: "dtype"
    value {
      type: DT_FLOAT
    }
  }
}
node {
  name: "resnet_model/batch_normalization_3/Const"
  op: "Const"
  device: "/device:GPU:0"
  attr {
    key: "_output_shapes"
    value {
      list {
        shape {
          dim {
          }
        }
      }
    }
  }
  attr {
    key: "dtype"
    value {
      type: DT_FLOAT
    }
  }
  attr {
    key: "value"
    value {
      tensor {
        dtype: DT_FLOAT
        tensor_shape {
          dim {
          }
        }
      }
    }
  }
}
node {
  name: "resnet_model/batch_normalization_3/Const_1"
  op: "Const"
  device: "/device:GPU:0"
  attr {
    key: "_output_shapes"
    value {
      list {
        shape {
          dim {
          }
        }
      }
    }
  }
  attr {
    key: "dtype"
    value {
      type: DT_FLOAT
    }
  }
  attr {
    key: "value"
    value {
      tensor {
        dtype: DT_FLOAT
        tensor_shape {
          dim {
          }
        }
      }
    }
  }
}
node {
  name: "resnet_model/batch_normalization_3/FusedBatchNorm"
  op: "FusedBatchNorm"
  input: "resnet_model/conv2d_3/Conv2D"
  input: "resnet_model/batch_normalization_3/ReadVariableOp"
  input: "resnet_model/batch_normalization_3/ReadVariableOp_1"
  input: "resnet_model/batch_normalization_3/Const"
  input: "resnet_model/batch_normalization_3/Const_1"
  device: "/device:GPU:0"
  attr {
    key: "T"
    value {
      type: DT_FLOAT
    }
  }
  attr {
    key: "_output_shapes"
    value {
      list {
        shape {
          dim {
            size: -1
          }
          dim {
            size: 32
          }
          dim {
            size: 32
          }
          dim {
            size: 16
          }
        }
        shape {
          dim {
            size: 16
          }
        }
        shape {
          dim {
            size: 16
          }
        }
        shape {
          dim {
            size: 16
          }
        }
        shape {
          dim {
            size: 16
          }
        }
      }
    }
  }
  attr {
    key: "data_format"
    value {
      s: "NHWC"
    }
  }
  attr {
    key: "epsilon"
    value {
      f: 1.00099996416e-05
    }
  }
  attr {
    key: "is_training"
    value {
      b: true
    }
  }
}
node {
  name: "resnet_model/batch_normalization_3/Const_2"
  op: "Const"
  device: "/device:GPU:0"
  attr {
    key: "_output_shapes"
    value {
      list {
        shape {
        }
      }
    }
  }
  attr {
    key: "dtype"
    value {
      type: DT_FLOAT
    }
  }
  attr {
    key: "value"
    value {
      tensor {
        dtype: DT_FLOAT
        tensor_shape {
        }
        float_val: 0.996999979019
      }
    }
  }
}
node {
  name: "resnet_model/batch_normalization_3/AssignMovingAvg/Read/ReadVariableOp"
  op: "ReadVariableOp"
  input: "resnet_model/batch_normalization_3/moving_mean"
  device: "/device:GPU:0"
  attr {
    key: "_output_shapes"
    value {
      list {
        shape {
          dim {
            size: 16
          }
        }
      }
    }
  }
  attr {
    key: "dtype"
    value {
      type: DT_FLOAT
    }
  }
}
node {
  name: "resnet_model/batch_normalization_3/AssignMovingAvg/Identity"
  op: "Identity"
  input: "resnet_model/batch_normalization_3/AssignMovingAvg/Read/ReadVariableOp"
  device: "/device:GPU:0"
  attr {
    key: "T"
    value {
      type: DT_FLOAT
    }
  }
  attr {
    key: "_output_shapes"
    value {
      list {
        shape {
          dim {
            size: 16
          }
        }
      }
    }
  }
}
node {
  name: "resnet_model/batch_normalization_3/AssignMovingAvg/sub/x"
  op: "Const"
  device: "/device:GPU:0"
  attr {
    key: "_class"
    value {
      list {
        s: "loc:@resnet_model/batch_normalization_3/AssignMovingAvg/Read/ReadVariableOp"
      }
    }
  }
  attr {
    key: "_output_shapes"
    value {
      list {
        shape {
        }
      }
    }
  }
  attr {
    key: "dtype"
    value {
      type: DT_FLOAT
    }
  }
  attr {
    key: "value"
    value {
      tensor {
        dtype: DT_FLOAT
        tensor_shape {
        }
        float_val: 1.0
      }
    }
  }
}
node {
  name: "resnet_model/batch_normalization_3/AssignMovingAvg/sub"
  op: "Sub"
  input: "resnet_model/batch_normalization_3/AssignMovingAvg/sub/x"
  input: "resnet_model/batch_normalization_3/Const_2"
  device: "/device:GPU:0"
  attr {
    key: "T"
    value {
      type: DT_FLOAT
    }
  }
  attr {
    key: "_class"
    value {
      list {
        s: "loc:@resnet_model/batch_normalization_3/AssignMovingAvg/Read/ReadVariableOp"
      }
    }
  }
  attr {
    key: "_output_shapes"
    value {
      list {
        shape {
        }
      }
    }
  }
}
node {
  name: "resnet_model/batch_normalization_3/AssignMovingAvg/ReadVariableOp"
  op: "ReadVariableOp"
  input: "resnet_model/batch_normalization_3/moving_mean"
  device: "/device:GPU:0"
  attr {
    key: "_output_shapes"
    value {
      list {
        shape {
          dim {
            size: 16
          }
        }
      }
    }
  }
  attr {
    key: "dtype"
    value {
      type: DT_FLOAT
    }
  }
}
node {
  name: "resnet_model/batch_normalization_3/AssignMovingAvg/sub_1"
  op: "Sub"
  input: "resnet_model/batch_normalization_3/AssignMovingAvg/ReadVariableOp"
  input: "resnet_model/batch_normalization_3/FusedBatchNorm:1"
  device: "/device:GPU:0"
  attr {
    key: "T"
    value {
      type: DT_FLOAT
    }
  }
  attr {
    key: "_class"
    value {
      list {
        s: "loc:@resnet_model/batch_normalization_3/AssignMovingAvg/Read/ReadVariableOp"
      }
    }
  }
  attr {
    key: "_output_shapes"
    value {
      list {
        shape {
          dim {
            size: 16
          }
        }
      }
    }
  }
}
node {
  name: "resnet_model/batch_normalization_3/AssignMovingAvg/mul"
  op: "Mul"
  input: "resnet_model/batch_normalization_3/AssignMovingAvg/sub_1"
  input: "resnet_model/batch_normalization_3/AssignMovingAvg/sub"
  device: "/device:GPU:0"
  attr {
    key: "T"
    value {
      type: DT_FLOAT
    }
  }
  attr {
    key: "_class"
    value {
      list {
        s: "loc:@resnet_model/batch_normalization_3/AssignMovingAvg/Read/ReadVariableOp"
      }
    }
  }
  attr {
    key: "_output_shapes"
    value {
      list {
        shape {
          dim {
            size: 16
          }
        }
      }
    }
  }
}
node {
  name: "resnet_model/batch_normalization_3/AssignMovingAvg/AssignSubVariableOp"
  op: "AssignSubVariableOp"
  input: "resnet_model/batch_normalization_3/moving_mean"
  input: "resnet_model/batch_normalization_3/AssignMovingAvg/mul"
  device: "/device:GPU:0"
  attr {
    key: "_class"
    value {
      list {
        s: "loc:@resnet_model/batch_normalization_3/AssignMovingAvg/Read/ReadVariableOp"
      }
    }
  }
  attr {
    key: "dtype"
    value {
      type: DT_FLOAT
    }
  }
}
node {
  name: "resnet_model/batch_normalization_3/AssignMovingAvg/ReadVariableOp_1"
  op: "ReadVariableOp"
  input: "resnet_model/batch_normalization_3/moving_mean"
  input: "^resnet_model/batch_normalization_3/AssignMovingAvg/AssignSubVariableOp"
  device: "/device:GPU:0"
  attr {
    key: "_class"
    value {
      list {
        s: "loc:@resnet_model/batch_normalization_3/AssignMovingAvg/Read/ReadVariableOp"
      }
    }
  }
  attr {
    key: "_output_shapes"
    value {
      list {
        shape {
          dim {
            size: 16
          }
        }
      }
    }
  }
  attr {
    key: "dtype"
    value {
      type: DT_FLOAT
    }
  }
}
node {
  name: "resnet_model/batch_normalization_3/AssignMovingAvg_1/Read/ReadVariableOp"
  op: "ReadVariableOp"
  input: "resnet_model/batch_normalization_3/moving_variance"
  device: "/device:GPU:0"
  attr {
    key: "_output_shapes"
    value {
      list {
        shape {
          dim {
            size: 16
          }
        }
      }
    }
  }
  attr {
    key: "dtype"
    value {
      type: DT_FLOAT
    }
  }
}
node {
  name: "resnet_model/batch_normalization_3/AssignMovingAvg_1/Identity"
  op: "Identity"
  input: "resnet_model/batch_normalization_3/AssignMovingAvg_1/Read/ReadVariableOp"
  device: "/device:GPU:0"
  attr {
    key: "T"
    value {
      type: DT_FLOAT
    }
  }
  attr {
    key: "_output_shapes"
    value {
      list {
        shape {
          dim {
            size: 16
          }
        }
      }
    }
  }
}
node {
  name: "resnet_model/batch_normalization_3/AssignMovingAvg_1/sub/x"
  op: "Const"
  device: "/device:GPU:0"
  attr {
    key: "_class"
    value {
      list {
        s: "loc:@resnet_model/batch_normalization_3/AssignMovingAvg_1/Read/ReadVariableOp"
      }
    }
  }
  attr {
    key: "_output_shapes"
    value {
      list {
        shape {
        }
      }
    }
  }
  attr {
    key: "dtype"
    value {
      type: DT_FLOAT
    }
  }
  attr {
    key: "value"
    value {
      tensor {
        dtype: DT_FLOAT
        tensor_shape {
        }
        float_val: 1.0
      }
    }
  }
}
node {
  name: "resnet_model/batch_normalization_3/AssignMovingAvg_1/sub"
  op: "Sub"
  input: "resnet_model/batch_normalization_3/AssignMovingAvg_1/sub/x"
  input: "resnet_model/batch_normalization_3/Const_2"
  device: "/device:GPU:0"
  attr {
    key: "T"
    value {
      type: DT_FLOAT
    }
  }
  attr {
    key: "_class"
    value {
      list {
        s: "loc:@resnet_model/batch_normalization_3/AssignMovingAvg_1/Read/ReadVariableOp"
      }
    }
  }
  attr {
    key: "_output_shapes"
    value {
      list {
        shape {
        }
      }
    }
  }
}
node {
  name: "resnet_model/batch_normalization_3/AssignMovingAvg_1/ReadVariableOp"
  op: "ReadVariableOp"
  input: "resnet_model/batch_normalization_3/moving_variance"
  device: "/device:GPU:0"
  attr {
    key: "_output_shapes"
    value {
      list {
        shape {
          dim {
            size: 16
          }
        }
      }
    }
  }
  attr {
    key: "dtype"
    value {
      type: DT_FLOAT
    }
  }
}
node {
  name: "resnet_model/batch_normalization_3/AssignMovingAvg_1/sub_1"
  op: "Sub"
  input: "resnet_model/batch_normalization_3/AssignMovingAvg_1/ReadVariableOp"
  input: "resnet_model/batch_normalization_3/FusedBatchNorm:2"
  device: "/device:GPU:0"
  attr {
    key: "T"
    value {
      type: DT_FLOAT
    }
  }
  attr {
    key: "_class"
    value {
      list {
        s: "loc:@resnet_model/batch_normalization_3/AssignMovingAvg_1/Read/ReadVariableOp"
      }
    }
  }
  attr {
    key: "_output_shapes"
    value {
      list {
        shape {
          dim {
            size: 16
          }
        }
      }
    }
  }
}
node {
  name: "resnet_model/batch_normalization_3/AssignMovingAvg_1/mul"
  op: "Mul"
  input: "resnet_model/batch_normalization_3/AssignMovingAvg_1/sub_1"
  input: "resnet_model/batch_normalization_3/AssignMovingAvg_1/sub"
  device: "/device:GPU:0"
  attr {
    key: "T"
    value {
      type: DT_FLOAT
    }
  }
  attr {
    key: "_class"
    value {
      list {
        s: "loc:@resnet_model/batch_normalization_3/AssignMovingAvg_1/Read/ReadVariableOp"
      }
    }
  }
  attr {
    key: "_output_shapes"
    value {
      list {
        shape {
          dim {
            size: 16
          }
        }
      }
    }
  }
}
node {
  name: "resnet_model/batch_normalization_3/AssignMovingAvg_1/AssignSubVariableOp"
  op: "AssignSubVariableOp"
  input: "resnet_model/batch_normalization_3/moving_variance"
  input: "resnet_model/batch_normalization_3/AssignMovingAvg_1/mul"
  device: "/device:GPU:0"
  attr {
    key: "_class"
    value {
      list {
        s: "loc:@resnet_model/batch_normalization_3/AssignMovingAvg_1/Read/ReadVariableOp"
      }
    }
  }
  attr {
    key: "dtype"
    value {
      type: DT_FLOAT
    }
  }
}
node {
  name: "resnet_model/batch_normalization_3/AssignMovingAvg_1/ReadVariableOp_1"
  op: "ReadVariableOp"
  input: "resnet_model/batch_normalization_3/moving_variance"
  input: "^resnet_model/batch_normalization_3/AssignMovingAvg_1/AssignSubVariableOp"
  device: "/device:GPU:0"
  attr {
    key: "_class"
    value {
      list {
        s: "loc:@resnet_model/batch_normalization_3/AssignMovingAvg_1/Read/ReadVariableOp"
      }
    }
  }
  attr {
    key: "_output_shapes"
    value {
      list {
        shape {
          dim {
            size: 16
          }
        }
      }
    }
  }
  attr {
    key: "dtype"
    value {
      type: DT_FLOAT
    }
  }
}
node {
  name: "resnet_model/add"
  op: "Add"
  input: "resnet_model/batch_normalization_3/FusedBatchNorm"
  input: "resnet_model/batch_normalization_1/FusedBatchNorm"
  device: "/device:GPU:0"
  attr {
    key: "T"
    value {
      type: DT_FLOAT
    }
  }
  attr {
    key: "_output_shapes"
    value {
      list {
        shape {
          dim {
            size: -1
          }
          dim {
            size: 32
          }
          dim {
            size: 32
          }
          dim {
            size: 16
          }
        }
      }
    }
  }
}
node {
  name: "resnet_model/Relu_2"
  op: "Relu"
  input: "resnet_model/add"
  device: "/device:GPU:0"
  attr {
    key: "T"
    value {
      type: DT_FLOAT
    }
  }
  attr {
    key: "_output_shapes"
    value {
      list {
        shape {
          dim {
            size: -1
          }
          dim {
            size: 32
          }
          dim {
            size: 32
          }
          dim {
            size: 16
          }
        }
      }
    }
  }
}
node {
  name: "resnet_model/conv2d_4/kernel/Initializer/truncated_normal/shape"
  op: "Const"
  attr {
    key: "_class"
    value {
      list {
        s: "loc:@resnet_model/conv2d_4/kernel"
      }
    }
  }
  attr {
    key: "_output_shapes"
    value {
      list {
        shape {
          dim {
            size: 4
          }
        }
      }
    }
  }
  attr {
    key: "dtype"
    value {
      type: DT_INT32
    }
  }
  attr {
    key: "value"
    value {
      tensor {
        dtype: DT_INT32
        tensor_shape {
          dim {
            size: 4
          }
        }
        tensor_content: "\003\000\000\000\003\000\000\000\020\000\000\000\020\000\000\000"
      }
    }
  }
}
node {
  name: "resnet_model/conv2d_4/kernel/Initializer/truncated_normal/mean"
  op: "Const"
  attr {
    key: "_class"
    value {
      list {
        s: "loc:@resnet_model/conv2d_4/kernel"
      }
    }
  }
  attr {
    key: "_output_shapes"
    value {
      list {
        shape {
        }
      }
    }
  }
  attr {
    key: "dtype"
    value {
      type: DT_FLOAT
    }
  }
  attr {
    key: "value"
    value {
      tensor {
        dtype: DT_FLOAT
        tensor_shape {
        }
        float_val: 0.0
      }
    }
  }
}
node {
  name: "resnet_model/conv2d_4/kernel/Initializer/truncated_normal/stddev"
  op: "Const"
  attr {
    key: "_class"
    value {
      list {
        s: "loc:@resnet_model/conv2d_4/kernel"
      }
    }
  }
  attr {
    key: "_output_shapes"
    value {
      list {
        shape {
        }
      }
    }
  }
  attr {
    key: "dtype"
    value {
      type: DT_FLOAT
    }
  }
  attr {
    key: "value"
    value {
      tensor {
        dtype: DT_FLOAT
        tensor_shape {
        }
        float_val: 0.0947372689843
…
    key: "T"
    value {
      type: DT_FLOAT
    }
  }
  attr {
    key: "_output_shapes"
    value {
      list {
        shape {
          unknown_rank: true
        }
      }
    }
  }
}
node {
  name: "save/AssignVariableOp_173"
  op: "AssignVariableOp"
  input: "resnet_model/conv2d_8/kernel"
  input: "save/Identity_174"
  device: "/device:GPU:0"
  attr {
    key: "dtype"
    value {
      type: DT_FLOAT
    }
  }
}
node {
  name: "save/Identity_175"
  op: "Identity"
  input: "save/RestoreV2:174"
  device: "/device:GPU:0"
  attr {
    key: "T"
    value {
      type: DT_FLOAT
    }
  }
  attr {
    key: "_output_shapes"
    value {
      list {
        shape {
          unknown_rank: true
        }
      }
    }
  }
}
node {
  name: "save/AssignVariableOp_174"
  op: "AssignVariableOp"
  input: "resnet_model/conv2d_8/kernel/Momentum"
  input: "save/Identity_175"
  device: "/device:GPU:0"
  attr {
    key: "dtype"
    value {
      type: DT_FLOAT
    }
  }
}
node {
  name: "save/Identity_176"
  op: "Identity"
  input: "save/RestoreV2:175"
  device: "/device:GPU:0"
  attr {
    key: "T"
    value {
      type: DT_FLOAT
    }
  }
  attr {
    key: "_output_shapes"
    value {
      list {
        shape {
          unknown_rank: true
        }
      }
    }
  }
}
node {
  name: "save/AssignVariableOp_175"
  op: "AssignVariableOp"
  input: "resnet_model/conv2d_9/kernel"
  input: "save/Identity_176"
  device: "/device:GPU:0"
  attr {
    key: "dtype"
    value {
      type: DT_FLOAT
    }
  }
}
node {
  name: "save/Identity_177"
  op: "Identity"
  input: "save/RestoreV2:176"
  device: "/device:GPU:0"
  attr {
    key: "T"
    value {
      type: DT_FLOAT
    }
  }
  attr {
    key: "_output_shapes"
    value {
      list {
        shape {
          unknown_rank: true
        }
      }
    }
  }
}
node {
  name: "save/AssignVariableOp_176"
  op: "AssignVariableOp"
  input: "resnet_model/conv2d_9/kernel/Momentum"
  input: "save/Identity_177"
  device: "/device:GPU:0"
  attr {
    key: "dtype"
    value {
      type: DT_FLOAT
    }
  }
}
node {
  name: "save/Identity_178"
  op: "Identity"
  input: "save/RestoreV2:177"
  device: "/device:GPU:0"
  attr {
    key: "T"
    value {
      type: DT_FLOAT
    }
  }
  attr {
    key: "_output_shapes"
    value {
      list {
        shape {
          unknown_rank: true
        }
      }
    }
  }
}
node {
  name: "save/AssignVariableOp_177"
  op: "AssignVariableOp"
  input: "resnet_model/dense/bias"
  input: "save/Identity_178"
  device: "/device:GPU:0"
  attr {
    key: "dtype"
    value {
      type: DT_FLOAT
    }
  }
}
node {
  name: "save/Identity_179"
  op: "Identity"
  input: "save/RestoreV2:178"
  device: "/device:GPU:0"
  attr {
    key: "T"
    value {
      type: DT_FLOAT
    }
  }
  attr {
    key: "_output_shapes"
    value {
      list {
        shape {
          unknown_rank: true
        }
      }
    }
  }
}
node {
  name: "save/AssignVariableOp_178"
  op: "AssignVariableOp"
  input: "resnet_model/dense/bias/Momentum"
  input: "save/Identity_179"
  device: "/device:GPU:0"
  attr {
    key: "dtype"
    value {
      type: DT_FLOAT
    }
  }
}
node {
  name: "save/Identity_180"
  op: "Identity"
  input: "save/RestoreV2:179"
  device: "/device:GPU:0"
  attr {
    key: "T"
    value {
      type: DT_FLOAT
    }
  }
  attr {
    key: "_output_shapes"
    value {
      list {
        shape {
          unknown_rank: true
        }
      }
    }
  }
}
node {
  name: "save/AssignVariableOp_179"
  op: "AssignVariableOp"
  input: "resnet_model/dense/kernel"
  input: "save/Identity_180"
  device: "/device:GPU:0"
  attr {
    key: "dtype"
    value {
      type: DT_FLOAT
    }
  }
}
node {
  name: "save/Identity_181"
  op: "Identity"
  input: "save/RestoreV2:180"
  device: "/device:GPU:0"
  attr {
    key: "T"
    value {
      type: DT_FLOAT
    }
  }
  attr {
    key: "_output_shapes"
    value {
      list {
        shape {
          unknown_rank: true
        }
      }
    }
  }
}
node {
  name: "save/AssignVariableOp_180"
  op: "AssignVariableOp"
  input: "resnet_model/dense/kernel/Momentum"
  input: "save/Identity_181"
  device: "/device:GPU:0"
  attr {
    key: "dtype"
    value {
      type: DT_FLOAT
    }
  }
}
node {
  name: "save/restore_shard"
  op: "NoOp"
  input: "^save/AssignVariableOp"
  input: "^save/AssignVariableOp_1"
  input: "^save/AssignVariableOp_10"
  input: "^save/AssignVariableOp_100"
  input: "^save/AssignVariableOp_101"
  input: "^save/AssignVariableOp_102"
  input: "^save/AssignVariableOp_103"
  input: "^save/AssignVariableOp_104"
  input: "^save/AssignVariableOp_105"
  input: "^save/AssignVariableOp_106"
  input: "^save/AssignVariableOp_107"
  input: "^save/AssignVariableOp_108"
  input: "^save/AssignVariableOp_109"
  input: "^save/AssignVariableOp_11"
  input: "^save/AssignVariableOp_110"
  input: "^save/AssignVariableOp_111"
  input: "^save/AssignVariableOp_112"
  input: "^save/AssignVariableOp_113"
  input: "^save/AssignVariableOp_114"
  input: "^save/AssignVariableOp_115"
  input: "^save/AssignVariableOp_116"
  input: "^save/AssignVariableOp_117"
  input: "^save/AssignVariableOp_118"
  input: "^save/AssignVariableOp_119"
  input: "^save/AssignVariableOp_12"
  input: "^save/AssignVariableOp_120"
  input: "^save/AssignVariableOp_121"
  input: "^save/AssignVariableOp_122"
  input: "^save/AssignVariableOp_123"
  input: "^save/AssignVariableOp_124"
  input: "^save/AssignVariableOp_125"
  input: "^save/AssignVariableOp_126"
  input: "^save/AssignVariableOp_127"
  input: "^save/AssignVariableOp_128"
  input: "^save/AssignVariableOp_129"
  input: "^save/AssignVariableOp_13"
  input: "^save/AssignVariableOp_130"
  input: "^save/AssignVariableOp_131"
  input: "^save/AssignVariableOp_132"
  input: "^save/AssignVariableOp_133"
  input: "^save/AssignVariableOp_134"
  input: "^save/AssignVariableOp_135"
  input: "^save/AssignVariableOp_136"
  input: "^save/AssignVariableOp_137"
  input: "^save/AssignVariableOp_138"
  input: "^save/AssignVariableOp_139"
  input: "^save/AssignVariableOp_14"
  input: "^save/AssignVariableOp_140"
  input: "^save/AssignVariableOp_141"
  input: "^save/AssignVariableOp_142"
  input: "^save/AssignVariableOp_143"
  input: "^save/AssignVariableOp_144"
  input: "^save/AssignVariableOp_145"
  input: "^save/AssignVariableOp_146"
  input: "^save/AssignVariableOp_147"
  input: "^save/AssignVariableOp_148"
  input: "^save/AssignVariableOp_149"
  input: "^save/AssignVariableOp_15"
  input: "^save/AssignVariableOp_150"
  input: "^save/AssignVariableOp_151"
  input: "^save/AssignVariableOp_152"
  input: "^save/AssignVariableOp_153"
  input: "^save/AssignVariableOp_154"
  input: "^save/AssignVariableOp_155"
  input: "^save/AssignVariableOp_156"
  input: "^save/AssignVariableOp_157"
  input: "^save/AssignVariableOp_158"
  input: "^save/AssignVariableOp_159"
  input: "^save/AssignVariableOp_16"
  input: "^save/AssignVariableOp_160"
  input: "^save/AssignVariableOp_161"
  input: "^save/AssignVariableOp_162"
  input: "^save/AssignVariableOp_163"
  input: "^save/AssignVariableOp_164"
  input: "^save/AssignVariableOp_165"
  input: "^save/AssignVariableOp_166"
  input: "^save/AssignVariableOp_167"
  input: "^save/AssignVariableOp_168"
  input: "^save/AssignVariableOp_169"
  input: "^save/AssignVariableOp_17"
  input: "^save/AssignVariableOp_170"
  input: "^save/AssignVariableOp_171"
  input: "^save/AssignVariableOp_172"
  input: "^save/AssignVariableOp_173"
  input: "^save/AssignVariableOp_174"
  input: "^save/AssignVariableOp_175"
  input: "^save/AssignVariableOp_176"
  input: "^save/AssignVariableOp_177"
  input: "^save/AssignVariableOp_178"
  input: "^save/AssignVariableOp_179"
  input: "^save/AssignVariableOp_18"
  input: "^save/AssignVariableOp_180"
  input: "^save/AssignVariableOp_19"
  input: "^save/AssignVariableOp_2"
  input: "^save/AssignVariableOp_20"
  input: "^save/AssignVariableOp_21"
  input: "^save/AssignVariableOp_22"
  input: "^save/AssignVariableOp_23"
  input: "^save/AssignVariableOp_24"
  input: "^save/AssignVariableOp_25"
  input: "^save/AssignVariableOp_26"
  input: "^save/AssignVariableOp_27"
  input: "^save/AssignVariableOp_28"
  input: "^save/AssignVariableOp_29"
  input: "^save/AssignVariableOp_3"
  input: "^save/AssignVariableOp_30"
  input: "^save/AssignVariableOp_31"
  input: "^save/AssignVariableOp_32"
  input: "^save/AssignVariableOp_33"
  input: "^save/AssignVariableOp_34"
  input: "^save/AssignVariableOp_35"
  input: "^save/AssignVariableOp_36"
  input: "^save/AssignVariableOp_37"
  input: "^save/AssignVariableOp_38"
  input: "^save/AssignVariableOp_39"
  input: "^save/AssignVariableOp_4"
  input: "^save/AssignVariableOp_40"
  input: "^save/AssignVariableOp_41"
  input: "^save/AssignVariableOp_42"
  input: "^save/AssignVariableOp_43"
  input: "^save/AssignVariableOp_44"
  input: "^save/AssignVariableOp_45"
  input: "^save/AssignVariableOp_46"
  input: "^save/AssignVariableOp_47"
  input: "^save/AssignVariableOp_48"
  input: "^save/AssignVariableOp_49"
  input: "^save/AssignVariableOp_5"
  input: "^save/AssignVariableOp_50"
  input: "^save/AssignVariableOp_51"
  input: "^save/AssignVariableOp_52"
  input: "^save/AssignVariableOp_53"
  input: "^save/AssignVariableOp_54"
  input: "^save/AssignVariableOp_55"
  input: "^save/AssignVariableOp_56"
  input: "^save/AssignVariableOp_57"
  input: "^save/AssignVariableOp_58"
  input: "^save/AssignVariableOp_59"
  input: "^save/AssignVariableOp_6"
  input: "^save/AssignVariableOp_60"
  input: "^save/AssignVariableOp_61"
  input: "^save/AssignVariableOp_62"
  input: "^save/AssignVariableOp_63"
  input: "^save/AssignVariableOp_64"
  input: "^save/AssignVariableOp_65"
  input: "^save/AssignVariableOp_66"
  input: "^save/AssignVariableOp_67"
  input: "^save/AssignVariableOp_68"
  input: "^save/AssignVariableOp_69"
  input: "^save/AssignVariableOp_7"
  input: "^save/AssignVariableOp_70"
  input: "^save/AssignVariableOp_71"
  input: "^save/AssignVariableOp_72"
  input: "^save/AssignVariableOp_73"
  input: "^save/AssignVariableOp_74"
  input: "^save/AssignVariableOp_75"
  input: "^save/AssignVariableOp_76"
  input: "^save/AssignVariableOp_77"
  input: "^save/AssignVariableOp_78"
  input: "^save/AssignVariableOp_79"
  input: "^save/AssignVariableOp_8"
  input: "^save/AssignVariableOp_80"
  input: "^save/AssignVariableOp_81"
  input: "^save/AssignVariableOp_82"
  input: "^save/AssignVariableOp_83"
  input: "^save/AssignVariableOp_84"
  input: "^save/AssignVariableOp_85"
  input: "^save/AssignVariableOp_86"
  input: "^save/AssignVariableOp_87"
  input: "^save/AssignVariableOp_88"
  input: "^save/AssignVariableOp_89"
  input: "^save/AssignVariableOp_9"
  input: "^save/AssignVariableOp_90"
  input: "^save/AssignVariableOp_91"
  input: "^save/AssignVariableOp_92"
  input: "^save/AssignVariableOp_93"
  input: "^save/AssignVariableOp_94"
  input: "^save/AssignVariableOp_95"
  input: "^save/AssignVariableOp_96"
  input: "^save/AssignVariableOp_97"
  input: "^save/AssignVariableOp_98"
  input: "^save/AssignVariableOp_99"
  device: "/device:GPU:0"
}
node {
  name: "save/restore_all"
  op: "NoOp"
  input: "^save/restore_shard"
  device: "/device:GPU:0"
}
library {
  function {
    signature {
      name: "_prefetch_fn_x2LuWNabKbc"
      input_arg {
        name: "handle"
        type: DT_STRING
      }
      output_arg {
        name: "iteratorgetnext"
        type: DT_FLOAT
      }
      output_arg {
        name: "iteratorgetnext_0"
        type: DT_INT32
      }
      description: "Prefetches one element from `input_iterator`."
      is_stateful: true
    }
    node_def {
      name: "IteratorFromStringHandleV2"
      op: "IteratorFromStringHandleV2"
      input: "handle"
      device: "/device:GPU:0"
      attr {
        key: "output_shapes"
        value {
          list {
            shape {
              dim {
                size: -1
              }
              dim {
                size: 32
              }
              dim {
                size: 32
              }
              dim {
                size: 3
              }
            }
            shape {
              dim {
                size: -1
              }
            }
          }
        }
      }
      attr {
        key: "output_types"
        value {
          list {
            type: DT_FLOAT
            type: DT_INT32
          }
        }
      }
    }
    node_def {
      name: "IteratorToStringHandle"
      op: "IteratorToStringHandle"
      input: "IteratorFromStringHandleV2:resource_handle:0"
      device: "/device:GPU:0"
    }
    node_def {
      name: "IteratorGetNext"
      op: "IteratorGetNext"
      input: "IteratorFromStringHandleV2:resource_handle:0"
      device: "/device:GPU:0"
      attr {
        key: "output_shapes"
        value {
          list {
            shape {
              dim {
                size: -1
              }
              dim {
                size: 32
              }
              dim {
                size: 32
              }
              dim {
                size: 3
              }
            }
            shape {
              dim {
                size: -1
              }
            }
          }
        }
      }
      attr {
        key: "output_types"
        value {
          list {
            type: DT_FLOAT
            type: DT_INT32
          }
        }
      }
    }
    ret {
      key: "iteratorgetnext"
      value: "IteratorGetNext:components:0"
    }
    ret {
      key: "iteratorgetnext_0"
      value: "IteratorGetNext:components:1"
    }
  }
  function {
    signature {
      name: "tf_data_structured_function_wrapper_1laPmU40Yks"
      input_arg {
        name: "arg0"
        type: DT_STRING
      }
      output_arg {
        name: "per_image_standardization"
        type: DT_FLOAT
      }
      output_arg {
        name: "cast"
        type: DT_INT32
      }
      description: "Wrapper for passing nested structures to and from tf.data functions."
      is_stateful: true
    }
    node_def {
      name: "DecodeRaw"
      op: "DecodeRaw"
      input: "arg0"
      device: "/device:CPU:0"
      attr {
        key: "little_endian"
        value {
          b: true
        }
      }
      attr {
        key: "out_type"
        value {
          type: DT_UINT8
        }
      }
    }
    node_def {
      name: "strided_slice/stack"
      op: "Const"
      device: "/device:CPU:0"
      attr {
        key: "dtype"
        value {
          type: DT_INT32
        }
      }
      attr {
        key: "value"
        value {
          tensor {
            dtype: DT_INT32
            tensor_shape {
              dim {
                size: 1
              }
            }
            int_val: 0
          }
        }
      }
    }
    node_def {
      name: "strided_slice/stack_1"
      op: "Const"
      device: "/device:CPU:0"
      attr {
        key: "dtype"
        value {
          type: DT_INT32
        }
      }
      attr {
        key: "value"
        value {
          tensor {
            dtype: DT_INT32
            tensor_shape {
              dim {
                size: 1
              }
            }
            int_val: 1
          }
        }
      }
    }
    node_def {
      name: "strided_slice/stack_2"
      op: "Const"
      device: "/device:CPU:0"
      attr {
        key: "dtype"
        value {
          type: DT_INT32
        }
      }
      attr {
        key: "value"
        value {
          tensor {
            dtype: DT_INT32
            tensor_shape {
              dim {
                size: 1
              }
            }
            int_val: 1
          }
        }
      }
    }
    node_def {
      name: "strided_slice"
      op: "StridedSlice"
      input: "DecodeRaw:output:0"
      input: "strided_slice/stack:output:0"
      input: "strided_slice/stack_1:output:0"
      input: "strided_slice/stack_2:output:0"
      device: "/device:CPU:0"
      attr {
        key: "Index"
        value {
          type: DT_INT32
        }
      }
      attr {
        key: "T"
        value {
          type: DT_UINT8
        }
      }
      attr {
        key: "begin_mask"
        value {
          i: 0
        }
      }
      attr {
        key: "ellipsis_mask"
        value {
          i: 0
        }
      }
      attr {
        key: "end_mask"
        value {
          i: 0
        }
      }
      attr {
        key: "new_axis_mask"
        value {
          i: 0
        }
      }
      attr {
        key: "shrink_axis_mask"
        value {
          i: 1
        }
      }
    }
    node_def {
      name: "Cast"
      op: "Cast"
      input: "strided_slice:output:0"
      device: "/device:CPU:0"
      attr {
        key: "DstT"
        value {
          type: DT_INT32
        }
      }
      attr {
        key: "SrcT"
        value {
          type: DT_UINT8
        }
      }
      attr {
        key: "Truncate"
        value {
          b: false
        }
      }
    }
    node_def {
      name: "strided_slice_1/stack"
      op: "Const"
      device: "/device:CPU:0"
      attr {
        key: "dtype"
        value {
          type: DT_INT32
        }
      }
      attr {
        key: "value"
        value {
          tensor {
            dtype: DT_INT32
            tensor_shape {
              dim {
                size: 1
              }
            }
            int_val: 1
          }
        }
      }
    }
    node_def {
      name: "strided_slice_1/stack_1"
      op: "Const"
      device: "/device:CPU:0"
      attr {
        key: "dtype"
        value {
          type: DT_INT32
        }
      }
      attr {
        key: "value"
        value {
          tensor {
            dtype: DT_INT32
            tensor_shape {
              dim {
                size: 1
              }
            }
            int_val: 3073
          }
        }
      }
    }
    node_def {
      name: "strided_slice_1/stack_2"
      op: "Const"
      device: "/device:CPU:0"
      attr {
        key: "dtype"
        value {
          type: DT_INT32
        }
      }
      attr {
        key: "value"
        value {
          tensor {
            dtype: DT_INT32
            tensor_shape {
              dim {
                size: 1
              }
            }
            int_val: 1
          }
        }
      }
    }
    node_def {
      name: "strided_slice_1"
      op: "StridedSlice"
      input: "DecodeRaw:output:0"
      input: "strided_slice_1/stack:output:0"
      input: "strided_slice_1/stack_1:output:0"
      input: "strided_slice_1/stack_2:output:0"
      device: "/device:CPU:0"
      attr {
        key: "Index"
        value {
          type: DT_INT32
        }
      }
      attr {
        key: "T"
        value {
          type: DT_UINT8
        }
      }
      attr {
        key: "begin_mask"
        value {
          i: 0
        }
      }
      attr {
        key: "ellipsis_mask"
        value {
          i: 0
        }
      }
      attr {
        key: "end_mask"
        value {
          i: 0
        }
      }
      attr {
        key: "new_axis_mask"
        value {
          i: 0
        }
      }
      attr {
        key: "shrink_axis_mask"
        value {
          i: 0
        }
      }
    }
    node_def {
      name: "Reshape/shape"
      op: "Const"
      device: "/device:CPU:0"
      attr {
        key: "dtype"
        value {
          type: DT_INT32
        }
      }
      attr {
        key: "value"
        value {
          tensor {
            dtype: DT_INT32
            tensor_shape {
              dim {
                size: 3
              }
            }
            tensor_content: "\003\000\000\000 \000\000\000 \000\000\000"
          }
        }
      }
    }
    node_def {
      name: "Reshape"
      op: "Reshape"
      input: "strided_slice_1:output:0"
      input: "Reshape/shape:output:0"
      device: "/device:CPU:0"
      attr {
        key: "T"
        value {
          type: DT_UINT8
        }
      }
      attr {
        key: "Tshape"
        value {
          type: DT_INT32
        }
      }
    }
    node_def {
      name: "transpose/perm"
      op: "Const"
      device: "/device:CPU:0"
      attr {
        key: "dtype"
        value {
          type: DT_INT32
        }
      }
      attr {
        key: "value"
        value {
          tensor {
            dtype: DT_INT32
            tensor_shape {
              dim {
                size: 3
              }
            }
            tensor_content: "\001\000\000\000\002\000\000\000\000\000\000\000"
          }
        }
      }
    }
    node_def {
      name: "transpose"
      op: "Transpose"
      input: "Reshape:output:0"
      input: "transpose/perm:output:0"
      device: "/device:CPU:0"
      attr {
        key: "T"
        value {
          type: DT_UINT8
        }
      }
      attr {
        key: "Tperm"
        value {
          type: DT_INT32
        }
      }
    }
    node_def {
      name: "Cast_1"
      op: "Cast"
      input: "transpose:y:0"
      device: "/device:CPU:0"
      attr {
        key: "DstT"
        value {
          type: DT_FLOAT
        }
      }
      attr {
        key: "SrcT"
        value {
          type: DT_UINT8
        }
      }
      attr {
        key: "Truncate"
        value {
          b: false
        }
      }
    }
    node_def {
      name: "resize_image_with_crop_or_pad/ExpandDims/dim"
      op: "Const"
      device: "/device:CPU:0"
      attr {
        key: "dtype"
        value {
          type: DT_INT32
        }
      }
      attr {
        key: "value"
        value {
          tensor {
            dtype: DT_INT32
            tensor_shape {
            }
            int_val: 0
          }
        }
      }
    }
    node_def {
      name: "resize_image_with_crop_or_pad/ExpandDims"
      op: "ExpandDims"
      input: "Cast_1:y:0"
      input: "resize_image_with_crop_or_pad/ExpandDims/dim:output:0"
      device: "/device:CPU:0"
      attr {
        key: "T"
        value {
          type: DT_FLOAT
        }
      }
      attr {
        key: "Tdim"
        value {
          type: DT_INT32
        }
      }
    }
    node_def {
      name: "resize_image_with_crop_or_pad/control_dependency"
      op: "Identity"
      input: "resize_image_with_crop_or_pad/ExpandDims:output:0"
      device: "/device:CPU:0"
      attr {
        key: "T"
        value {
          type: DT_FLOAT
        }
      }
      attr {
        key: "_class"
        value {
          list {
            s: "loc:@resize_image_with_crop_or_pad/ExpandDims"
          }
        }
      }
    }
    node_def {
      name: "resize_image_with_crop_or_pad/crop_to_bounding_box/control_dependency"
      op: "Identity"
      input: "resize_image_with_crop_or_pad/control_dependency:output:0"
      device: "/device:CPU:0"
      attr {
        key: "T"
        value {
          type: DT_FLOAT
        }
      }
      attr {
        key: "_class"
        value {
          list {
            s: "loc:@resize_image_with_crop_or_pad/ExpandDims"
          }
        }
      }
    }
    node_def {
      name: "resize_image_with_crop_or_pad/crop_to_bounding_box/stack"
      op: "Const"
      device: "/device:CPU:0"
      attr {
        key: "dtype"
        value {
          type: DT_INT32
        }
      }
      attr {
        key: "value"
        value {
          tensor {
            dtype: DT_INT32
            tensor_shape {
              dim {
                size: 4
              }
            }
            tensor_content: "\000\000\000\000\000\000\000\000\000\000\000\000\000\000\000\000"
          }
        }
      }
    }
    node_def {
      name: "resize_image_with_crop_or_pad/crop_to_bounding_box/stack_1"
      op: "Const"
      device: "/device:CPU:0"
      attr {
        key: "dtype"
        value {
          type: DT_INT32
        }
      }
      attr {
        key: "value"
        value {
          tensor {
            dtype: DT_INT32
            tensor_shape {
              dim {
                size: 4
              }
            }
            tensor_content: "\377\377\377\377 \000\000\000 \000\000\000\377\377\377\377"
          }
        }
      }
    }
    node_def {
      name: "resize_image_with_crop_or_pad/crop_to_bounding_box/Slice"
      op: "Slice"
      input: "resize_image_with_crop_or_pad/crop_to_bounding_box/control_dependency:output:0"
      input: "resize_image_with_crop_or_pad/crop_to_bounding_box/stack:output:0"
      input: "resize_image_with_crop_or_pad/crop_to_bounding_box/stack_1:output:0"
      device: "/device:CPU:0"
      attr {
        key: "Index"
        value {
          type: DT_INT32
        }
      }
      attr {
        key: "T"
        value {
          type: DT_FLOAT
        }
      }
    }
    node_def {
      name: "resize_image_with_crop_or_pad/pad_to_bounding_box/control_dependency"
      op: "Identity"
      input: "resize_image_with_crop_or_pad/crop_to_bounding_box/Slice:output:0"
      device: "/device:CPU:0"
      attr {
        key: "T"
        value {
          type: DT_FLOAT
        }
      }
      attr {
        key: "_class"
        value {
          list {
            s: "loc:@resize_image_with_crop_or_pad/crop_to_bounding_box/Slice"
          }
        }
      }
    }
    node_def {
      name: "resize_image_with_crop_or_pad/pad_to_bounding_box/stack"
      op: "Const"
      device: "/device:CPU:0"
      attr {
        key: "dtype"
        value {
          type: DT_INT32
        }
      }
      attr {
        key: "value"
        value {
          tensor {
            dtype: DT_INT32
            tensor_shape {
              dim {
                size: 8
              }
            }
            tensor_content: "…"
          }
        }
      }
    }
    node_def {
      name: "resize_image_with_crop_or_pad/pad_to_bounding_box/Reshape/shape"
      op: "Const"
      device: "/device:CPU:0"
      attr {
        key: "dtype"
        value {
          type: DT_INT32
        }
      }
      attr {
        key: "value"
        value {
          tensor {
            dtype: DT_INT32
            tensor_shape {
              dim {
                size: 2
              }
            }
            tensor_content: "\004\000\000\000\002\000\000\000"
          }
        }
      }
    }
    node_def {
      name: "resize_image_with_crop_or_pad/pad_to_bounding_box/Reshape"
      op: "Reshape"
      input: "resize_image_with_crop_or_pad/pad_to_bounding_box/stack:output:0"
      input: "resize_image_with_crop_or_pad/pad_to_bounding_box/Reshape/shape:output:0"
      device: "/device:CPU:0"
      attr {
        key: "T"
        value {
          type: DT_INT32
        }
      }
      attr {
        key: "Tshape"
        value {
          type: DT_INT32
        }
      }
    }
    node_def {
      name: "resize_image_with_crop_or_pad/pad_to_bounding_box/Pad"
      op: "Pad"
      input: "resize_image_with_crop_or_pad/pad_to_bounding_box/control_dependency:output:0"
      input: "resize_image_with_crop_or_pad/pad_to_bounding_box/Reshape:output:0"
      device: "/device:CPU:0"
      attr {
        key: "T"
        value {
          type: DT_FLOAT
        }
      }
      attr {
        key: "Tpaddings"
        value {
          type: DT_INT32
        }
      }
    }
    node_def {
      name: "resize_image_with_crop_or_pad/control_dependency_1"
      op: "Identity"
      input: "resize_image_with_crop_or_pad/pad_to_bounding_box/Pad:output:0"
      device: "/device:CPU:0"
      attr {
        key: "T"
        value {
          type: DT_FLOAT
        }
      }
      attr {
        key: "_class"
        value {
          list {
            s: "loc:@resize_image_with_crop_or_pad/pad_to_bounding_box/Pad"
          }
        }
      }
    }
    node_def {
      name: "resize_image_with_crop_or_pad/Squeeze"
      op: "Squeeze"
      input: "resize_image_with_crop_or_pad/control_dependency_1:output:0"
      device: "/device:CPU:0"
      attr {
        key: "T"
        value {
          type: DT_FLOAT
        }
      }
      attr {
        key: "squeeze_dims"
        value {
          list {
            i: 0
          }
        }
      }
    }
    node_def {
      name: "random_crop/size"
      op: "Const"
      device: "/device:CPU:0"
      attr {
        key: "dtype"
        value {
          type: DT_INT32
        }
      }
      attr {
        key: "value"
        value {
          tensor {
            dtype: DT_INT32
            tensor_shape {
              dim {
                size: 3
              }
            }
            tensor_content: " \000\000\000 \000\000\000\003\000\000\000"
          }
        }
      }
    }
    node_def {
      name: "random_crop/Shape"
      op: "Const"
      device: "/device:CPU:0"
      attr {
        key: "dtype"
        value {
          type: DT_INT32
        }
      }
      attr {
        key: "value"
        value {
          tensor {
            dtype: DT_INT32
            tensor_shape {
              dim {
                size: 3
              }
            }
            tensor_content: "(\000\000\000(\000\000\000\003\000\000\000"
          }
        }
      }
    }
    node_def {
      name: "random_crop/GreaterEqual"
      op: "GreaterEqual"
      input: "random_crop/Shape:output:0"
      input: "random_crop/size:output:0"
      device: "/device:CPU:0"
      attr {
        key: "T"
        value {
          type: DT_INT32
        }
      }
    }
    node_def {
      name: "random_crop/Const"
      op: "Const"
      device: "/device:CPU:0"
      attr {
        key: "dtype"
        value {
          type: DT_INT32
        }
      }
      attr {
        key: "value"
        value {
          tensor {
            dtype: DT_INT32
            tensor_shape {
              dim {
                size: 1
              }
            }
            int_val: 0
          }
        }
      }
    }
    node_def {
      name: "random_crop/All"
      op: "All"
      input: "random_crop/GreaterEqual:z:0"
      input: "random_crop/Const:output:0"
      device: "/device:CPU:0"
      attr {
        key: "Tidx"
        value {
          type: DT_INT32
        }
      }
      attr {
        key: "keep_dims"
        value {
          b: false
        }
      }
    }
    node_def {
      name: "random_crop/Assert/Const"
      op: "Const"
      device: "/device:CPU:0"
      attr {
        key: "dtype"
        value {
          type: DT_STRING
        }
      }
      attr {
        key: "value"
        value {
          tensor {
            dtype: DT_STRING
            tensor_shape {
            }
            string_val: "Need value.shape >= size, got "
          }
        }
      }
    }
    node_def {
      name: "random_crop/Assert/Assert/data_0"
      op: "Const"
      device: "/device:CPU:0"
      attr {
        key: "dtype"
        value {
          type: DT_STRING
        }
      }
      attr {
        key: "value"
        value {
          tensor {
            dtype: DT_STRING
            tensor_shape {
            }
            string_val: "Need value.shape >= size, got "
          }
        }
      }
    }
    node_def {
      name: "random_crop/Assert/Assert"
      op: "Assert"
      input: "random_crop/All:output:0"
      input: "random_crop/Assert/Assert/data_0:output:0"
      input: "random_crop/Shape:output:0"
      input: "random_crop/size:output:0"
      device: "/device:CPU:0"
      attr {
        key: "T"
        value {
          list {
            type: DT_STRING
            type: DT_INT32
            type: DT_INT32
          }
        }
      }
      attr {
        key: "summarize"
        value {
          i: 1000
        }
      }
    }
    node_def {
      name: "random_crop/control_dependency"
      op: "Identity"
      input: "random_crop/Shape:output:0"
      input: "^random_crop/Assert/Assert"
      device: "/device:CPU:0"
      attr {
        key: "T"
        value {
          type: DT_INT32
        }
      }
      attr {
        key: "_class"
        value {
          list {
            s: "loc:@random_crop/Shape"
          }
        }
      }
    }
    node_def {
      name: "random_crop/sub"
      op: "Sub"
      input: "random_crop/control_dependency:output:0"
      input: "random_crop/size:output:0"
      device: "/device:CPU:0"
      attr {
        key: "T"
        value {
          type: DT_INT32
        }
      }
    }
    node_def {
      name: "random_crop/add/y"
      op: "Const"
      device: "/device:CPU:0"
      attr {
        key: "dtype"
        value {
          type: DT_INT32
        }
      }
      attr {
        key: "value"
        value {
          tensor {
            dtype: DT_INT32
            tensor_shape {
            }
            int_val: 1
          }
        }
      }
    }
    node_def {
      name: "random_crop/add"
      op: "Add"
      input: "random_crop/sub:z:0"
      input: "random_crop/add/y:output:0"
      device: "/device:CPU:0"
      attr {
        key: "T"
        value {
          type: DT_INT32
        }
      }
    }
    node_def {
      name: "random_crop/Shape_1"
      op: "Const"
      device: "/device:CPU:0"
      attr {
        key: "dtype"
        value {
          type: DT_INT32
        }
      }
      attr {
        key: "value"
        value {
          tensor {
            dtype: DT_INT32
            tensor_shape {
              dim {
                size: 1
              }
            }
            int_val: 3
          }
        }
      }
    }
    node_def {
      name: "random_crop/random_uniform/min"
      op: "Const"
      device: "/device:CPU:0"
      attr {
        key: "dtype"
        value {
          type: DT_INT32
        }
      }
      attr {
        key: "value"
        value {
          tensor {
            dtype: DT_INT32
            tensor_shape {
            }
            int_val: 0
          }
        }
      }
    }
    node_def {
      name: "random_crop/random_uniform/max"
      op: "Const"
      device: "/device:CPU:0"
      attr {
        key: "dtype"
        value {
          type: DT_INT32
        }
      }
      attr {
        key: "value"
        value {
          tensor {
            dtype: DT_INT32
            tensor_shape {
            }
            int_val: 2147483647
          }
        }
      }
    }
    node_def {
      name: "random_crop/random_uniform"
      op: "RandomUniformInt"
      input: "random_crop/Shape_1:output:0"
      input: "random_crop/random_uniform/min:output:0"
      input: "random_crop/random_uniform/max:output:0"
      device: "/device:CPU:0"
      attr {
        key: "T"
        value {
          type: DT_INT32
        }
      }
      attr {
        key: "Tout"
        value {
          type: DT_INT32
        }
      }
      attr {
        key: "seed"
        value {
          i: 0
        }
      }
      attr {
        key: "seed2"
        value {
          i: 0
        }
      }
    }
    node_def {
      name: "random_crop/mod"
      op: "FloorMod"
      input: "random_crop/random_uniform:output:0"
      input: "random_crop/add:z:0"
      device: "/device:CPU:0"
      attr {
        key: "T"
        value {
          type: DT_INT32
        }
      }
    }
    node_def {
      name: "random_crop"
      op: "Slice"
      input: "resize_image_with_crop_or_pad/Squeeze:output:0"
      input: "random_crop/mod:z:0"
      input: "random_crop/size:output:0"
      device: "/device:CPU:0"
      attr {
        key: "Index"
        value {
          type: DT_INT32
        }
      }
      attr {
        key: "T"
        value {
          type: DT_FLOAT
        }
      }
    }
    node_def {
      name: "random_flip_left_right/control_dependency"
      op: "Identity"
      input: "random_crop:output:0"
      device: "/device:CPU:0"
      attr {
        key: "T"
        value {
          type: DT_FLOAT
        }
      }
      attr {
        key: "_class"
        value {
          list {
            s: "loc:@random_crop"
          }
        }
      }
    }
    node_def {
      name: "random_flip_left_right/random_uniform/shape"
      op: "Const"
      device: "/device:CPU:0"
      attr {
        key: "dtype"
        value {
          type: DT_INT32
        }
      }
      attr {
        key: "value"
        value {
          tensor {
            dtype: DT_INT32
            tensor_shape {
              dim {
              }
            }
          }
        }
      }
    }
    node_def {
      name: "random_flip_left_right/random_uniform/min"
      op: "Const"
      device: "/device:CPU:0"
      attr {
        key: "dtype"
        value {
          type: DT_FLOAT
        }
      }
      attr {
        key: "value"
        value {
          tensor {
            dtype: DT_FLOAT
            tensor_shape {
            }
            float_val: 0.0
          }
        }
      }
    }
    node_def {
      name: "random_flip_left_right/random_uniform/max"
      op: "Const"
      device: "/device:CPU:0"
      attr {
        key: "dtype"
        value {
          type: DT_FLOAT
        }
      }
      attr {
        key: "value"
        value {
          tensor {
            dtype: DT_FLOAT
            tensor_shape {
            }
            float_val: 1.0
          }
        }
      }
    }
    node_def {
      name: "random_flip_left_right/random_uniform/RandomUniform"
      op: "RandomUniform"
      input: "random_flip_left_right/random_uniform/shape:output:0"
      device: "/device:CPU:0"
      attr {
        key: "T"
        value {
          type: DT_INT32
        }
      }
      attr {
        key: "dtype"
        value {
          type: DT_FLOAT
        }
      }
      attr {
        key: "seed"
        value {
          i: 0
        }
      }
      attr {
        key: "seed2"
        value {
          i: 0
        }
      }
    }
    node_def {
      name: "random_flip_left_right/random_uniform/sub"
      op: "Sub"
      input: "random_flip_left_right/random_uniform/max:output:0"
      input: "random_flip_left_right/random_uniform/min:output:0"
      device: "/device:CPU:0"
      attr {
        key: "T"
        value {
          type: DT_FLOAT
        }
      }
    }
    node_def {
      name: "random_flip_left_right/random_uniform/mul"
      op: "Mul"
      input: "random_flip_left_right/random_uniform/RandomUniform:output:0"
      input: "random_flip_left_right/random_uniform/sub:z:0"
      device: "/device:CPU:0"
      attr {
        key: "T"
        value {
          type: DT_FLOAT
        }
      }
    }
    node_def {
      name: "random_flip_left_right/random_uniform"
      op: "Add"
      input: "random_flip_left_right/random_uniform/mul:z:0"
      input: "random_flip_left_right/random_uniform/min:output:0"
      device: "/device:CPU:0"
      attr {
        key: "T"
        value {
          type: DT_FLOAT
        }
      }
    }
    node_def {
      name: "random_flip_left_right/Less/y"
      op: "Const"
      device: "/device:CPU:0"
      attr {
        key: "dtype"
        value {
          type: DT_FLOAT
        }
      }
      attr {
        key: "value"
        value {
          tensor {
            dtype: DT_FLOAT
            tensor_shape {
            }
            float_val: 0.5
          }
        }
      }
    }
    node_def {
      name: "random_flip_left_right/Less"
      op: "Less"
      input: "random_flip_left_right/random_uniform:z:0"
      input: "random_flip_left_right/Less/y:output:0"
      device: "/device:CPU:0"
      attr {
        key: "T"
        value {
          type: DT_FLOAT
        }
      }
    }
    node_def {
      name: "random_flip_left_right/Switch"
      op: "Switch"
      input: "random_flip_left_right/Less:z:0"
      input: "random_flip_left_right/Less:z:0"
      device: "/device:CPU:0"
      attr {
        key: "T"
        value {
          type: DT_BOOL
        }
      }
    }
    node_def {
      name: "random_flip_left_right/switch_t"
      op: "Identity"
      input: "random_flip_left_right/Switch:output_true:0"
      device: "/device:CPU:0"
      attr {
        key: "T"
        value {
          type: DT_BOOL
        }
      }
    }
    node_def {
      name: "random_flip_left_right/switch_f"
      op: "Identity"
      input: "random_flip_left_right/Switch:output_false:0"
      device: "/device:CPU:0"
      attr {
        key: "T"
        value {
          type: DT_BOOL
        }
      }
    }
    node_def {
      name: "random_flip_left_right/pred_id"
      op: "Identity"
      input: "random_flip_left_right/Less:z:0"
      device: "/device:CPU:0"
      attr {
        key: "T"
        value {
          type: DT_BOOL
        }
      }
    }
    node_def {
      name: "random_flip_left_right/ReverseV2/axis"
      op: "Const"
      input: "^random_flip_left_right/switch_t"
      device: "/device:CPU:0"
      attr {
        key: "dtype"
        value {
          type: DT_INT32
        }
      }
      attr {
        key: "value"
        value {
          tensor {
            dtype: DT_INT32
            tensor_shape {
              dim {
                size: 1
              }
            }
            int_val: 1
          }
        }
      }
    }
    node_def {
      name: "random_flip_left_right/ReverseV2"
      op: "ReverseV2"
      input: "random_flip_left_right/ReverseV2/Switch:output_true:0"
      input: "random_flip_left_right/ReverseV2/axis:output:0"
      device: "/device:CPU:0"
      attr {
        key: "T"
        value {
          type: DT_FLOAT
        }
      }
      attr {
        key: "Tidx"
        value {
          type: DT_INT32
        }
      }
    }
    node_def {
      name: "random_flip_left_right/ReverseV2/Switch"
      op: "Switch"
      input: "random_flip_left_right/control_dependency:output:0"
      input: "random_flip_left_right/pred_id:output:0"
      device: "/device:CPU:0"
      attr {
        key: "T"
        value {
          type: DT_FLOAT
        }
      }
      attr {
        key: "_class"
        value {
          list {
            s: "loc:@random_crop"
          }
        }
      }
    }
    node_def {
      name: "random_flip_left_right/Switch_1"
      op: "Switch"
      input: "random_flip_left_right/control_dependency:output:0"
      input: "random_flip_left_right/pred_id:output:0"
      device: "/device:CPU:0"
      attr {
        key: "T"
        value {
          type: DT_FLOAT
        }
      }
      attr {
        key: "_class"
        value {
          list {
            s: "loc:@random_crop"
          }
        }
      }
    }
    node_def {
      name: "random_flip_left_right/Merge"
      op: "Merge"
      input: "random_flip_left_right/Switch_1:output_false:0"
      input: "random_flip_left_right/ReverseV2:output:0"
      device: "/device:CPU:0"
      attr {
        key: "N"
        value {
          i: 2
        }
      }
      attr {
        key: "T"
        value {
          type: DT_FLOAT
        }
      }
    }
    node_def {
      name: "per_image_standardization/control_dependency"
      op: "Identity"
      input: "random_flip_left_right/Merge:output:0"
      device: "/device:CPU:0"
      attr {
        key: "T"
        value {
          type: DT_FLOAT
        }
      }
      attr {
        key: "_class"
        value {
          list {
            s: "loc:@random_flip_left_right/Merge"
          }
        }
      }
    }
    node_def {
      name: "per_image_standardization/Shape"
      op: "Const"
      device: "/device:CPU:0"
      attr {
        key: "dtype"
        value {
          type: DT_INT32
        }
      }
      attr {
        key: "value"
        value {
          tensor {
            dtype: DT_INT32
            tensor_shape {
              dim {
                size: 3
              }
            }
            tensor_content: " \000\000\000 \000\000\000\003\000\000\000"
          }
        }
      }
    }
    node_def {
      name: "per_image_standardization/Const"
      op: "Const"
      device: "/device:CPU:0"
      attr {
        key: "dtype"
        value {
          type: DT_INT32
        }
      }
      attr {
        key: "value"
        value {
          tensor {
            dtype: DT_INT32
            tensor_shape {
              dim {
                size: 1
              }
            }
            int_val: 0
          }
        }
      }
    }
    node_def {
      name: "per_image_standardization/Prod"
      op: "Prod"
      input: "per_image_standardization/Shape:output:0"
      input: "per_image_standardization/Const:output:0"
      device: "/device:CPU:0"
      attr {
        key: "T"
        value {
          type: DT_INT32
        }
      }
      attr {
        key: "Tidx"
        value {
          type: DT_INT32
        }
      }
      attr {
        key: "keep_dims"
        value {
          b: false
        }
      }
    }
    node_def {
      name: "per_image_standardization/Const_1"
      op: "Const"
      device: "/device:CPU:0"
      attr {
        key: "dtype"
        value {
          type: DT_INT32
        }
      }
      attr {
        key: "value"
        value {
          tensor {
            dtype: DT_INT32
            tensor_shape {
              dim {
                size: 3
              }
            }
            tensor_content: "\000\000\000\000\001\000\000\000\002\000\000\000"
          }
        }
      }
    }
    node_def {
      name: "per_image_standardization/Mean"
      op: "Mean"
      input: "per_image_standardization/control_dependency:output:0"
      input: "per_image_standardization/Const_1:output:0"
      device: "/device:CPU:0"
      attr {
        key: "T"
        value {
          type: DT_FLOAT
        }
      }
      attr {
        key: "Tidx"
        value {
          type: DT_INT32
        }
      }
      attr {
        key: "keep_dims"
        value {
          b: false
        }
      }
    }
    node_def {
      name: "per_image_standardization/Square"
      op: "Square"
      input: "per_image_standardization/control_dependency:output:0"
      device: "/device:CPU:0"
      attr {
        key: "T"
        value {
          type: DT_FLOAT
        }
      }
    }
    node_def {
      name: "per_image_standardization/Const_2"
      op: "Const"
      device: "/device:CPU:0"
      attr {
        key: "dtype"
        value {
          type: DT_INT32
        }
      }
      attr {
        key: "value"
        value {
          tensor {
            dtype: DT_INT32
            tensor_shape {
              dim {
                size: 3
              }
            }
            tensor_content: "\000\000\000\000\001\000\000\000\002\000\000\000"
          }
        }
      }
    }
    node_def {
      name: "per_image_standardization/Mean_1"
      op: "Mean"
      input: "per_image_standardization/Square:y:0"
      input: "per_image_standardization/Const_2:output:0"
      device: "/device:CPU:0"
      attr {
        key: "T"
        value {
          type: DT_FLOAT
        }
      }
      attr {
        key: "Tidx"
        value {
          type: DT_INT32
        }
      }
      attr {
        key: "keep_dims"
        value {
          b: false
        }
      }
    }
    node_def {
      name: "per_image_standardization/Square_1"
      op: "Square"
      input: "per_image_standardization/Mean:output:0"
      device: "/device:CPU:0"
      attr {
        key: "T"
        value {
          type: DT_FLOAT
        }
      }
    }
    node_def {
      name: "per_image_standardization/sub"
      op: "Sub"
      input: "per_image_standardization/Mean_1:output:0"
      input: "per_image_standardization/Square_1:y:0"
      device: "/device:CPU:0"
      attr {
        key: "T"
        value {
          type: DT_FLOAT
        }
      }
    }
    node_def {
      name: "per_image_standardization/Relu"
      op: "Relu"
      input: "per_image_standardization/sub:z:0"
      device: "/device:CPU:0"
      attr {
        key: "T"
        value {
          type: DT_FLOAT
        }
      }
    }
    node_def {
      name: "per_image_standardization/Sqrt"
      op: "Sqrt"
      input: "per_image_standardization/Relu:activations:0"
      device: "/device:CPU:0"
      attr {
        key: "T"
        value {
          type: DT_FLOAT
        }
      }
    }
    node_def {
      name: "per_image_standardization/Cast"
      op: "Cast"
      input: "per_image_standardization/Prod:output:0"
      device: "/device:CPU:0"
      attr {
        key: "DstT"
        value {
          type: DT_FLOAT
        }
      }
      attr {
        key: "SrcT"
        value {
          type: DT_INT32
        }
      }
      attr {
        key: "Truncate"
        value {
          b: false
        }
      }
    }
    node_def {
      name: "per_image_standardization/Rsqrt"
      op: "Rsqrt"
      input: "per_image_standardization/Cast:y:0"
      device: "/device:CPU:0"
      attr {
        key: "T"
        value {
          type: DT_FLOAT
        }
      }
    }
    node_def {
      name: "per_image_standardization/Maximum"
      op: "Maximum"
      input: "per_image_standardization/Sqrt:y:0"
      input: "per_image_standardization/Rsqrt:y:0"
      device: "/device:CPU:0"
      attr {
        key: "T"
        value {
          type: DT_FLOAT
        }
      }
    }
    node_def {
      name: "per_image_standardization/Sub_1"
      op: "Sub"
      input: "per_image_standardization/control_dependency:output:0"
      input: "per_image_standardization/Mean:output:0"
      device: "/device:CPU:0"
      attr {
        key: "T"
        value {
          type: DT_FLOAT
        }
      }
    }
    node_def {
      name: "per_image_standardization_0"
      op: "RealDiv"
      input: "per_image_standardization/Sub_1:z:0"
      input: "per_image_standardization/Maximum:z:0"
      device: "/device:CPU:0"
      attr {
        key: "T"
        value {
          type: DT_FLOAT
        }
      }
    }
    ret {
      key: "cast"
      value: "Cast:y:0"
    }
    ret {
      key: "per_image_standardization"
      value: "per_image_standardization_0:z:0"
    }
  }
}
versions {
  producer: 27
  min_consumer: 12
}
